mesa-24.1.x/src/gallium/targets/teflon/tests/mobiledet36.tflite (tflite, 189008 bytes, 1 tensors)

FeatureExtractor/MobileDetEdgeTPU/FusedConv_9/Conv/weights_quant/FakeQuantWithMinMaxVars u1 [288, 3, 3, 72] scale=0.0007393785 zero_point=133
000000 a6 82 ac 68 79 a7 8f 5d 92 8d 91 7c 94 83 7c 61
       0.024399491 -0.0022181356 0.028835762 -0.021441977 -0.0088725425 0.02513887 0.007393785 -0.02957514 0.00961192 0.005915028 0.0088725425 -0.0066544064 0.011090677 -0.001478757 -0.0066544064 -0.026617626
000010 6e 8a 93 72 5a 86 5a 77 8b 95 72 80 7e 81 6b 7f
       -0.017005706 0.0036968924 0.010351299 -0.014048192 -0.031793274 0.0007393785 -0.031793274 -0.010351299 0.0044362713 0.011830056 -0.014048192 -0.0036968924 -0.0051756497 -0.002957514 -0.01922384 -0.0044362713
000020 86 80 b7 81 a5 6d 7c 75 b4 a5 9d 5d a2 76 8e 82
       0.0007393785 -0.0036968924 0.036968924 -0.002957514 0.023660112 -0.017745085 -0.0066544064 -0.011830056 0.03475079 0.023660112 0.017745085 -0.02957514 0.021441977 -0.011090677 0.0066544064 -0.0022181356
000030 97 92 59 7a 79 88 8c 71 6a 8f 93 66 7d 5b 62 83
       0.013308813 0.00961192 -0.032532655 -0.008133164 -0.0088725425 0.0022181356 0.0051756497 -0.01478757 -0.01996322 0.007393785 0.010351299 -0.022920733 -0.005915028 -0.031053897 -0.025878247 -0.001478757
000040 79 8b a7 8a 44 73 81 73 64 48 de a1 82 98 a4 49
       -0.0088725425 0.0044362713 0.02513887 0.0036968924 -0.0480596 -0.013308813 -0.002957514 -0.013308813 -0.024399491 -0.04510209 0.06580469 0.020702599 -0.0022181356 0.014048192 0.022920733 -0.04436271
000050 a5 81 70 6b 57 9b 57 2d ad 85 ab 5a 4d 78 7e 7a
       0.023660112 -0.002957514 -0.0155269485 -0.01922384 -0.034011412 0.016266327 -0.034011412 -0.06506531 0.02957514 0.0 0.028096383 -0.031793274 -0.041405197 -0.00961192 -0.0051756497 -0.008133164
000060 ae b0 8f 8a 8c 73 93 99 f3 6d 6b 7c 65 8d 72 86
       0.030314518 0.031793274 0.007393785 0.0036968924 0.0051756497 -0.013308813 0.010351299 0.01478757 0.08133163 -0.017745085 -0.01922384 -0.0066544064 -0.023660112 0.005915028 -0.014048192 0.0007393785
000070 a2 76 a3 6d 94 96 87 92 6f 85 5b 6d 87 a0 86 7e
       0.021441977 -0.011090677 0.022181354 -0.017745085 0.011090677 0.012569435 0.001478757 0.00961192 -0.016266327 0.0 -0.031053897 -0.017745085 0.001478757 0.01996322 0.0007393785 -0.0051756497
000080 76 65 85 5d b4 52 52 99 65 7a 50 8a 3f 91 8c 96
       -0.011090677 -0.023660112 0.0 -0.02957514 0.03475079 -0.037708305 -0.037708305 0.01478757 -0.023660112 -0.008133164 -0.039187063 0.0036968924 -0.051756494 0.0088725425 0.0051756497 0.012569435
000090 88 90 a7 74 90 b8 89 79 8f 80 6c 71 93 7c 85 77
       0.0022181356 0.008133164 0.02513887 -0.012569435 0.008133164 0.037708305 0.002957514 -0.0088725425 0.007393785 -0.0036968924 -0.018484462 -0.01478757 0.010351299 -0.0066544064 0.0 -0.010351299
0000a0 a5 9d 7e a6 6e 79 86 74 aa 94 76 95 88 88 a1 6b
       0.023660112 0.017745085 -0.0051756497 0.024399491 -0.017005706 -0.0088725425 0.0007393785 -0.012569435 0.027357005 0.011090677 -0.011090677 0.011830056 0.0022181356 0.0022181356 0.020702599 -0.01922384
0000b0 7a a0 8a 90 9a 6a 5e 76 9c 8b 81 70 a8 8d 97 ab
       -0.008133164 0.01996322 0.0036968924 0.008133164 0.0155269485 -0.01996322 -0.028835762 -0.011090677 0.017005706 0.0044362713 -0.002957514 -0.0155269485 0.025878247 0.005915028 0.013308813 0.028096383
0000c0 8b 80 94 8c a7 71 88 84 9a 6f 80 61 85 7e 6a 88
       0.0044362713 -0.0036968924 0.011090677 0.0051756497 0.02513887 -0.01478757 0.0022181356 -0.0007393785 0.0155269485 -0.016266327 -0.0036968924 -0.026617626 0.0 -0.0051756497 -0.01996322 0.0022181356
0000d0 74 95 82 75 50 69 6f 7d 71 62 8c 9b 6c 9c 85 8c
       -0.012569435 0.011830056 -0.0022181356 -0.011830056 -0.039187063 -0.020702599 -0.016266327 -0.005915028 -0.01478757 -0.025878247 0.0051756497 0.016266327 -0.018484462 0.017005706 0.0 0.0051756497
0000e0 87 75 8a 8a 7f 6b 75 77 91 97 9d 88 9e 6b 81 69
       0.001478757 -0.011830056 0.0036968924 0.0036968924 -0.0044362713 -0.01922384 -0.011830056 -0.010351299 0.0088725425 0.013308813 0.017745085 0.0022181356 0.018484462 -0.01922384 -0.002957514 -0.020702599
0000f0 af a2 9f 86 96 8c 82 6b 81 8e 9e 76 84 aa 89 7b
       0.031053897 0.021441977 0.01922384 0.0007393785 0.012569435 0.0051756497 -0.0022181356 -0.01922384 -0.002957514 0.0066544064 0.018484462 -0.011090677 -0.0007393785 0.027357005 0.002957514 -0.007393785
