mesa-24.1.x/src/gallium/targets/teflon/tests/mobiledet82.tflite (tflite, 2128 bytes, 1 tensors)

FeatureExtractor/MobileDetEdgeTPU/C5_2_Conv2d_5_3x3_s2_128_depthwise/weights_quant/FakeQuantWithMinMaxVars u1 [1, 3, 3, 64] scale=0.016611535 zero_point=98
0.63123834 -0.7973537 1.0963613 -0.9966921 0.714296 -0.36545378 0.6644614 0.5647922
-1.0465267 1.7442112 0.78074217 0.78074217 0.58140373 0.8139652 2.608011 -0.465123
0.64784986 -0.8804114 0.5149576 0.6644614 0.68107295 0.714296 -0.69768447 0.2325615
-0.49834606 -0.19933842 -0.7973537 -0.73090756 -0.8305768 -0.7973537 -0.8471883 0.26578456
-0.34884223 0.8305768 0.69768447 0.8305768 -0.6146268 -0.69768447 0.6644614 -1.2458651
-0.29900762 -1.0631382 0.4152884 0.7475191 1.1960305 -0.4152884 1.6279304 0.5647922
-0.58140373 0.19933842 0.73090756 -0.8637998 0.4817345 -1.0963613 0.59801525 0.6644614
-0.64784986 -0.26578456 0.78074217 0.44851145 0.73090756 -0.54818064 -0.54818064 -0.69768447
0.6146268 -0.714296 0.26578456 -0.9136344 0.7475191 -0.36545378 0.68107295 0.54818064
-1.0133036 1.4784266 0.6644614 0.78074217 0.4318999 0.69768447 2.2757802 -0.44851145
0.714296 -0.7475191 1.1461959 0.59801525 0.63123834 0.68107295 -0.73090756 0.21594995
-0.5149576 -0.19933842 -0.963469 -0.73090756 -0.5647922 -0.78074217 -0.8970229 0.31561917
-0.3322307 0.78074217 0.7475191 -0.8970229 1.3953689 -0.714296 -0.36545378 -1.2790883
0.59801525 -1.0631382 0.4152884 0.68107295 -0.29900762 -0.64784986 -0.6146268 0.59801525
0.8139652 0.18272689 0.8139652 -0.8804114 0.5149576 -0.963469 0.5647922 0.6644614
-0.6644614 -0.24917303 0.8139652 0.465123 0.7641306 -0.4817345 -0.5647922 -0.73090756
0.0 0.0 0.0 0.0 0.0 0.0 0.0 0.0
0.0 0.0 0.0 0.0 0.0 0.0 0.0 0.0
0.0 0.0 0.0 0.0 0.0 0.0 0.0 0.0
0.0 0.0 0.0 0.0 0.0 0.0 0.0 0.0
0.0 0.0 0.0 0.0 0.0 0.0 0.0 0.0
0.0 0.0 0.0 0.0 0.0 0.0 0.0 0.0
0.0 0.0 0.0 0.0 0.0 0.0 0.0 0.0
0.0 0.0 0.0 0.0 0.0 0.0 0.0 0.0
0.714296 -0.63123834 1.3787574 -0.8305768 0.714296 -0.44851145 0.4152884 0.69768447
-0.39867684 -1.1129729 0.73090756 -0.68107295 0.58140373 0.78074217 2.541565 -0.5149576
0.7641306 -0.714296 0.714296 0.64784986 0.8305768 0.49834606 -0.64784986 0.2325615
0.49834606 -0.2325615 0.08305767 -0.78074217 1.2790883 -0.5647922 -0.6146268 0.2823961
-0.39867684 -0.54818064 0.78074217 0.59801525 -1.0963613 -0.7641306 0.6644614 0.19933842
-0.36545378 -0.34884223 0.44851145 0.5315691 -0.49834606 -0.58140373 0.963469 0.36545378
-0.58140373 -0.13289228 0.8471883 -0.8637998 0.59801525 0.714296 -0.2823961 0.58140373
-0.7641306 -0.26578456 0.8305768 0.3322307 0.7475191 -0.6644614 -0.63123834 -0.930246
00000000: 8832 a426 8d4c 8a84 23cb 9191 8593 ff46
00000010: 892d 818a 8b8d 3870 4456 3236 3032 2f72
00000020: 4d94 8c94 3d38 8a17 5022 7b8f aa49 c484
00000030: 3f6e 8e2e 7f20 868a 3b52 917d 8e41 4138
00000040: 8737 722b 8f4c 8b83 25bb 8a91 7c8c eb47
00000050: 8d35 a786 888b 366f 4356 2836 4033 2c75
00000060: 4e91 8f2c b637 4c15 8622 7b8b 503b 3d86
00000070: 936d 932d 8128 848a 3a53 937e 9045 4036
00000080: 6262 6262 6262 6262 6262 6262 6262 6262
00000090: 6262 6262 6262 6262 6262 6262 6262 6262
000000a0: 6262 6262 6262 6262 6262 6262 6262 6262
000000b0: 6262 6262 6262 6262 6262 6262 6262 6262
000000c0: 8d3c b530 8d47 7b8c 4a1f 8e39 8591 fb43
000000d0: 9037 8d89 9480 3b70 8054 6733 af40 3d73
000000e0: 4a41 9186 2034 8a6e 4c4d 7d82 443f 9c78
000000f0: 3f5a 952e 868d 5185 3452 9476 8f3a 3c2a
