mesa-24.1.x/src/gallium/targets/teflon/tests/mobiledet77.tflite (tflite, 35072 bytes, 1 tensors)

FeatureExtractor/MobileDetEdgeTPU/C5_2_Conv2d_3_3x3_s2_256/weights_quant/FakeQuantWithMinMaxVars u1 [256, 1, 1, 128] scale=0.0094582625 zero_point=118
0.0094582625 -0.018916525 -0.03783305 0.0094582625 -0.03783305 0.028374787 0.056749575 -0.03783305
0.0094582625 0.018916525 -0.094582625 -0.10404089 0.056749575 0.056749575 -0.018916525 -0.06620784
-0.0094582625 -0.028374787 0.08512436 0.028374787 0.0756661 -0.0756661 -0.047291312 0.08512436
0.0 0.03783305 0.094582625 0.047291312 0.0 -0.056749575 0.2742896 0.028374787
0.17024872 -0.056749575 -0.047291312 0.20808178 0.018916525 -0.028374787 0.13241568 -0.10404089
0.03783305 0.018916525 0.047291312 -0.018916525 -0.26483136 0.19862351 0.06620784 0.06620784
0.13241568 -0.018916525 -0.056749575 -0.03783305 0.0 -0.047291312 -0.0756661 0.10404089
-0.018916525 0.018916525 -0.20808178 -0.018916525 0.028374787 -0.018916525 0.0094582625 0.0756661
-0.1513322 0.0094582625 0.0094582625 0.028374787 -0.0094582625 0.0094582625 0.028374787 0.018916525
0.0094582625 -0.018916525 0.11349915 -0.018916525 -0.028374787 -0.056749575 0.12295741 -0.0756661
0.028374787 0.03783305 0.0094582625 -0.0094582625 -0.018916525 -0.03783305 0.0094582625 0.0
-0.17024872 0.03783305 -0.028374787 0.0094582625 -0.0094582625 0.1513322 0.018916525 -0.03783305
0.047291312 0.028374787 -0.13241568 0.0 0.018916525 -0.34049743 0.028374787 0.0
0.0 0.06620784 -0.03783305 -0.11349915 0.0094582625 0.018916525 -0.056749575 -0.20808178
0.018916525 0.14187394 -0.4067053 0.0 0.0094582625 0.16079046 0.028374787 -0.0094582625
0.0094582625 -0.0756661 0.3783305 -0.028374787 0.31212267 -0.03783305 0.018916525 -0.11349915
0.26483136 0.10404089 0.10404089 -0.0094582625 0.21754004 -0.06620784 0.03783305 0.13241568
-0.17970699 0.10404089 -0.14187394 -0.028374787 0.08512436 -0.047291312 0.06620784 0.0094582625
-0.018916525 -0.094582625 0.03783305 -0.06620784 -0.3783305 0.0094582625 0.0756661 -0.12295741
-0.17970699 -0.094582625 -0.08512436 0.094582625 0.06620784 -0.21754004 0.17970699 0.056749575
0.03783305 0.0094582625 0.03783305 0.17970699 0.047291312 -0.03783305 -0.2742896 0.018916525
0.20808178 0.03783305 -0.08512436 0.0 0.0094582625 -0.03783305 0.10404089 0.06620784
0.08512436 -0.018916525 -0.38778877 0.0 0.0756661 -0.056749575 0.028374787 -0.12295741
0.094582625 -0.12295741 -0.17024872 -0.14187394 -0.20808178 0.1513322 -0.11349915 -0.2742896
-0.19862351 -0.03783305 -0.056749575 -0.10404089 -0.10404089 -0.0756661 -0.0756661 0.29320613
-0.12295741 -0.0756661 0.32158092 -0.0756661 -0.19862351 0.16079046 -0.17970699 -0.06620784
-0.23645656 -0.24591482 0.0 0.11349915 -0.11349915 0.047291312 -0.12295741 -0.1513322
0.047291312 0.0756661 0.10404089 0.056749575 -0.17970699 -0.06620784 -0.028374787 0.06620784
-0.13241568 -0.03783305 -0.41616356 0.0094582625 0.0756661 0.23645656 -0.1513322 -0.12295741
0.2269983 -0.018916525 0.14187394 0.0094582625 -0.0094582625 0.13241568 -0.047291312 0.2269983
-0.018916525 0.018916525 0.14187394 -0.18916525 -0.20808178 0.1513322 -0.056749575 0.17970699
0.028374787 -0.12295741 0.2269983 0.19862351 0.03783305 -0.10404089 0.17024872 -0.11349915
00000000: 7774 7277 7279 7c72 7778 6c6b 7c7c 746f
00000010: 7573 7f79 7e6e 717f 767a 807b 7670 9379
00000020: 8870 718c 7873 846b 7a78 7b74 5a8b 7d7d
00000030: 8474 7072 7671 6e81 7478 6074 7974 777e
00000040: 6677 7779 7577 7978 7774 8274 7370 836e
00000050: 797a 7775 7472 7776 647a 7377 7586 7872
00000060: 7b79 6876 7852 7976 767d 726a 7778 7060
00000070: 7885 4b76 7787 7975 776e 9e73 9772 786a
00000080: 9281 8175 8d6f 7a84 6381 6773 7f71 7d77
00000090: 746c 7a6f 4e77 7e69 636c 6d80 7d5f 897c
000000a0: 7a77 7a89 7b72 5978 8c7a 6d76 7772 817d
000000b0: 7f74 4d76 7e70 7969 8069 6467 6086 6a59
000000c0: 6172 706b 6b6e 6e95 696e 986e 6187 636f
000000d0: 5d5c 7682 6a7b 6966 7b7e 817c 636f 737d
000000e0: 6872 4a77 7e8f 6669 8e74 8577 7584 718e
000000f0: 7478 8562 6086 7089 7969 8e8b 7a6b 886a
