mesa-24.1.x/src/gallium/targets/teflon/tests/mobiledet80.tflite (tflite, 35072 bytes, 1 tensors)

FeatureExtractor/MobileDetEdgeTPU/C5_2_Conv2d_4_3x3_s2_256/weights_quant/FakeQuantWithMinMaxVars u1 [256, 1, 1, 128] scale=0.013052885 zero_point=124
00000000: 8879 8372 7b84 777b 7a49 7f82 7486 7885
00000010: 8383 7961 5d8d 6f8b 7677 7a72 837c 7e7f
00000020: 7885 8179 796e 7f69 8783 907f 7c85 7679
00000030: 9e70 8394 826e 898a 76a9 817f 627e 9579
00000040: 806e 7e84 7868 8890 78a4 9161 787f 8469
00000050: 4076 7986 7f94 657a 8d6d 815d 8e7b 776d
00000060: 79a1 6975 887e 7f8a 7478 6d80 807b 7194
00000070: 6c6f 7771 7588 7780 7b71 7c7d 6f97 7978
00000080: 7a7c 776a 777c 7e78 7e7d 847e 7880 7778
00000090: 6b7b 797a 7a7c 7b73 7a7b 7c80 7b82 7d7c
000000a0: 7f7d 997e 7f7a 6a82 827e 7c78 7d82 717b
000000b0: 8b7d 7c7e 8279 7c7e 9477 787b 786f 8079
000000c0: 8c83 7c78 7778 8073 867f 7e77 6c80 8576
000000d0: 7c7c 7b82 807c 7c7d 7c7c 7e7d 7c81 7e80
000000e0: 817a 797c 927c 7b74 804a 7b87 8379 7b7f
000000f0: 6e7e 7a7d 7e7c 7a7a 797c 7a7b 8478 8079
0.15663463 -0.039158657 0.091370195 -0.13052885 -0.013052885 0.10442308 -0.065264426 -0.013052885
-0.02610577 -0.66569716 0.039158657 0.078317314 -0.10442308 0.13052885 -0.05221154 0.11747597
0.091370195 0.091370195 -0.039158657 -0.3524279 -0.40463945 0.22189905 -0.16968751 0.19579329
-0.078317314 -0.065264426 -0.02610577 -0.13052885 0.091370195 0.0 0.02610577 0.039158657
-0.05221154 0.11747597 0.065264426 -0.039158657 -0.039158657 -0.18274039 0.039158657 -0.24800482
0.14358173 0.091370195 0.2610577 0.039158657 0.0 0.11747597 -0.078317314 -0.039158657
0.4437981 -0.15663463 0.091370195 0.31326926 0.078317314 -0.18274039 0.16968751 0.18274039
-0.078317314 0.5873799 0.065264426 0.039158657 -0.33937502 0.02610577 0.32632214 -0.039158657
0.05221154 -0.18274039 0.02610577 0.10442308 -0.05221154 -0.2610577 0.15663463 0.2610577
-0.05221154 0.5221154 0.2741106 -0.3524279 -0.05221154 0.039158657 0.10442308 -0.24800482
-0.78317314 -0.078317314 -0.039158657 0.13052885 0.039158657 0.31326926 -0.30021638 -0.02610577
0.22189905 -0.19579329 0.065264426 -0.40463945 0.23495194 -0.013052885 -0.065264426 -0.19579329
-0.039158657 0.48295677 -0.24800482 -0.091370195 0.15663463 0.02610577 0.039158657 0.18274039
-0.10442308 -0.05221154 -0.19579329 0.05221154 0.05221154 -0.013052885 -0.14358173 0.31326926
-0.20884617 -0.16968751 -0.065264426 -0.14358173 -0.091370195 0.15663463 -0.065264426 0.05221154
-0.013052885 -0.14358173 0.0 0.013052885 -0.16968751 0.3524279 -0.039158657 -0.05221154
-0.02610577 0.0 -0.065264426 -0.23495194 -0.065264426 0.0 0.02610577 -0.05221154
0.02610577 0.013052885 0.10442308 0.02610577 -0.05221154 0.05221154 -0.065264426 -0.05221154
-0.22189905 -0.013052885 -0.039158657 -0.02610577 -0.02610577 0.0 -0.013052885 -0.11747597
-0.02610577 -0.013052885 0.0 0.05221154 -0.013052885 0.078317314 0.013052885 0.0
0.039158657 0.013052885 0.3785337 0.02610577 0.039158657 -0.02610577 -0.23495194 0.078317314
0.078317314 0.02610577 0.0 -0.05221154 0.013052885 0.078317314 -0.14358173 -0.013052885
0.19579329 0.013052885 0.0 0.02610577 0.078317314 -0.039158657 0.0 0.02610577
0.31326926 -0.065264426 -0.05221154 -0.013052885 -0.05221154 -0.16968751 0.05221154 -0.039158657
0.20884617 0.091370195 0.0 -0.05221154 -0.065264426 -0.05221154 0.05221154 -0.11747597
0.13052885 0.039158657 0.02610577 -0.065264426 -0.20884617 0.05221154 0.11747597 -0.078317314
0.0 0.0 -0.013052885 0.078317314 0.05221154 0.0 0.0 0.013052885
0.0 0.0 0.02610577 0.013052885 0.0 0.065264426 0.02610577 0.05221154
0.065264426 -0.02610577 -0.039158657 0.0 0.28716347 0.0 -0.013052885 -0.10442308
0.05221154 -0.6526443 -0.013052885 0.14358173 0.091370195 -0.039158657 -0.013052885 0.039158657
-0.18274039 0.02610577 -0.02610577 0.013052885 0.02610577 0.0 -0.02610577 -0.02610577
-0.039158657 0.0 -0.02610577 -0.013052885 0.10442308 -0.05221154 0.05221154 -0.039158657
