mesa-24.1.x/src/gallium/targets/teflon/tests/mobiledet26.tflite (tflite, 15296 bytes, 1 tensors)

FeatureExtractor/MobileDetEdgeTPU/IBN/Conv/weights_quant/FakeQuantWithMinMaxVars u1 [320, 1, 1, 40] scale=0.0017085427 zero_point=132
0	0x8f	0.01879397
1	0x84	0.0
2	0x8e	0.017085427
3	0x19	-0.18281406
4	0xa6	0.058090452
5	0x8a	0.010251256
6	0x7d	-0.011959799
7	0x8f	0.01879397
8	0x7b	-0.0153768845
9	0x86	0.0034170854
10	0xc8	0.116180904
11	0x93	0.02562814
12	0x86	0.0034170854
13	0x7c	-0.013668342
14	0x80	-0.006834171
15	0xa9	0.06321608
16	0x63	-0.056381907
17	0x78	-0.020502511
18	0x70	-0.034170855
19	0xb8	0.08884422
20	0x8b	0.011959799
21	0x92	0.023919597
22	0x89	0.008542714
23	0x87	0.005125628
24	0x86	0.0034170854
25	0x86	0.0034170854
26	0x97	0.03246231
27	0x82	-0.0034170854
28	0x7f	-0.008542714
29	0x90	0.020502511
30	0x5b	-0.07005025
31	0x94	0.027336683
32	0x7b	-0.0153768845
33	0xa0	0.047839195
34	0x75	-0.02562814
35	0x71	-0.03246231
36	0x83	-0.0017085427
37	0x81	-0.005125628
38	0x72	-0.030753769
39	0x8d	0.0153768845
40	0x74	-0.027336683
41	0x9f	0.046130653
42	0x63	-0.056381907
43	0x82	-0.0034170854
44	0x8a	0.010251256
45	0x84	0.0
46	0xa0	0.047839195
47	0x5f	-0.06321608
48	0x8c	0.013668342
49	0x7f	-0.008542714
50	0x85	0.0017085427
51	0x67	-0.04954774
52	0xac	0.06834171
53	0x7b	-0.0153768845
54	0xae	0.07175879
55	0x77	-0.022211054
56	0x7e	-0.010251256
57	0x7d	-0.011959799
58	0x99	0.035879396
59	0x83	-0.0017085427
60	0x85	0.0017085427
61	0x76	-0.023919597
62	0x77	-0.022211054
63	0x65	-0.052964825
64	0x91	0.022211054
65	0x77	-0.022211054
66	0x8d	0.0153768845
67	0x6e	-0.03758794
68	0x94	0.027336683
69	0x81	-0.005125628
70	0x8a	0.010251256
71	0x76	-0.023919597
72	0x7f	-0.008542714
73	0xbe	0.09909548
74	0x85	0.0017085427
75	0x96	0.030753769
76	0x78	-0.020502511
77	0x68	-0.047839195
78	0x61	-0.059798993
79	0xa8	0.061507538
80	0x8e	0.017085427
81	0x8e	0.017085427
82	0x78	-0.020502511
83	0xa6	0.058090452
84	0xb0	0.07517588
85	0x88	0.006834171
86	0x92	0.023919597
87	0x91	0.022211054
88	0x7e	-0.010251256
89	0x71	-0.03246231
90	0x68	-0.047839195
91	0x90	0.020502511
92	0x84	0.0
93	0xa4	0.054673366
94	0x87	0.005125628
95	0x8d	0.0153768845
96	0x7a	-0.017085427
97	0x86	0.0034170854
98	0x5f	-0.06321608
99	0xbd	0.097386934
100	0x6a	-0.04442211
101	0x7b	-0.0153768845
102	0x6e	-0.03758794
103	0x7d	-0.011959799
104	0x94	0.027336683
105	0x76	-0.023919597
106	0x5b	-0.07005025
107	0x87	0.005125628
108	0x91	0.022211054
109	0xcb	0.12130653
110	0x6c	-0.041005023
111	0xa2	0.05125628
112	0x8e	0.017085427
113	0xad	0.07005025
114	0x71	-0.03246231
115	0x64	-0.054673366
116	0xce	0.12643217
117	0x69	-0.046130653
118	0x7e	-0.010251256
119	0x40	-0.116180904
120	0x73	-0.029045226
121	0x89	0.008542714
122	0x8b	0.011959799
123	0x80	-0.006834171
124	0x82	-0.0034170854
125	0x87	0.005125628
126	0x5c	-0.06834171
127	0x83	-0.0017085427
128	0x8a	0.010251256
129	0xa5	0.056381907
130	0x69	-0.046130653
131	0x8d	0.0153768845
132	0x85	0.0017085427
133	0x88	0.006834171
134	0x8e	0.017085427
135	0x9c	0.041005023
136	0x65	-0.052964825
137	0x75	-0.02562814
138	0x86	0.0034170854
139	0x95	0.029045226
140	0x7f	-0.008542714
141	0x67	-0.04954774
142	0x7e	-0.010251256
143	0x6e	-0.03758794
144	0x95	0.029045226
145	0x90	0.020502511
146	0x7d	-0.011959799
147	0x7b	-0.0153768845
148	0x72	-0.030753769
149	0x76	-0.023919597
150	0x9d	0.042713568
151	0x76	-0.023919597
152	0x82	-0.0034170854
153	0x8a	0.010251256
154	0x8e	0.017085427
155	0x58	-0.07517588
156	0x76	-0.023919597
157	0x82	-0.0034170854
158	0x77	-0.022211054
159	0x8f	0.01879397
160	0x87	0.005125628
161	0x96	0.030753769
162	0x93	0.02562814
163	0x5d	-0.066633165
164	0x9d	0.042713568
165	0x79	-0.01879397
166	0xa4	0.054673366
167	0x83	-0.0017085427
168	0x70	-0.034170855
169	0x99	0.035879396
170	0x75	-0.02562814
171	0x97	0.03246231
172	0x80	-0.006834171
173	0x8a	0.010251256
174	0x87	0.005125628
175	0x90	0.020502511
176	0x89	0.008542714
177	0x7d	-0.011959799
178	0x8e	0.017085427
179	0x61	-0.059798993
180	0x73	-0.029045226
181	0x83	-0.0017085427
182	0x93	0.02562814
183	0x64	-0.054673366
184	0xc7	0.11447236
185	0x77	-0.022211054
186	0x46	-0.10592965
187	0xb5	0.08371859
188	0xa0	0.047839195
189	0x8a	0.010251256
190	0xa3	0.052964825
191	0x8b	0.011959799
192	0x66	-0.05125628
193	0x7f	-0.008542714
194	0x78	-0.020502511
195	0x62	-0.058090452
196	0x7d	-0.011959799
197	0x80	-0.006834171
198	0x61	-0.059798993
199	0x89	0.008542714
200	0x85	0.0017085427
201	0x8a	0.010251256
202	0x87	0.005125628
203	0x8b	0.011959799
204	0x7f	-0.008542714
205	0x92	0.023919597
206	0x83	-0.0017085427
207	0x79	-0.01879397
208	0x8e	0.017085427
209	0x80	-0.006834171
210	0x93	0.02562814
211	0x81	-0.005125628
212	0x61	-0.059798993
213	0x8d	0.0153768845
214	0x74	-0.027336683
215	0x7f	-0.008542714
216	0x85	0.0017085427
217	0x84	0.0
218	0x83	-0.0017085427
219	0x7f	-0.008542714
220	0x7b	-0.0153768845
221	0x81	-0.005125628
222	0x99	0.035879396
223	0x84	0.0
224	0x78	-0.020502511
225	0x75	-0.02562814
226	0x87	0.005125628
227	0x93	0.02562814
228	0x8b	0.011959799
229	0x77	-0.022211054
230	0x7f	-0.008542714
231	0x89	0.008542714
232	0x75	-0.02562814
233	0x9c	0.041005023
234	0x7e	-0.010251256
235	0x84	0.0
236	0x80	-0.006834171
237	0x8a	0.010251256
238	0x82	-0.0034170854
239	0x87	0.005125628
240	0x8e	0.017085427
241	0x8a	0.010251256
242	0xa0	0.047839195
243	0xe5	0.16572864
244	0xbe	0.09909548
245	0x92	0.023919597
246	0x57	-0.07688442
247	0x98	0.034170855
248	0x76	-0.023919597
249	0x95	0.029045226
250	0x5f	-0.06321608
251	0x71	-0.03246231
252	0x88	0.006834171
253	0x8b	0.011959799
254	0x8d	0.0153768845
255	0x6b	-0.042713568
