mesa-24.1.x/src/gallium/targets/teflon/tests/mobiledet1.tflite (tflite, 1504 bytes, 1 tensors)

FeatureExtractor/MobileDetEdgeTPU/TuckerConv/Conv/weights_quant/FakeQuantWithMinMaxVars u1 [8, 1, 1, 32] scale=0.0058309296 zero_point=91
0	0x6d	0.10495673
1	0x5b	0.0
2	0x5c	0.0058309296
3	0x5e	0.01749279
4	0x54	-0.04081651
5	0x79	0.17492789
6	0x3f	-0.16326603
7	0x54	-0.04081651
8	0x7e	0.20408253
9	0x63	0.046647437
10	0x77	0.16326603
11	0x64	0.052478366
12	0x5d	0.011661859
13	0x4e	-0.07580209
14	0x61	0.03498558
15	0x65	0.058309294
16	0x5b	0.0
17	0x38	-0.20408253
18	0x4d	-0.08163302
19	0x65	0.058309294
20	0x58	-0.01749279
21	0x5f	0.023323718
22	0xf3	0.8863013
23	0x66	0.06414022
24	0x46	-0.122449525
25	0x57	-0.023323718
26	0x4b	-0.093294874
27	0x96	0.34402484
28	0x65	0.058309294
29	0x36	-0.21574439
30	0x92	0.32070112
31	0x55	-0.03498558
32	0x3c	-0.18075882
33	0x55	-0.03498558
34	0x65	0.058309294
35	0x6a	0.087463945
36	0x44	-0.13411137
37	0x50	-0.06414022
38	0x5d	0.011661859
39	0x5b	0.0
40	0x71	0.12828045
41	0x58	-0.01749279
42	0x8a	0.2740537
43	0xcd	0.66472596
44	0x51	-0.058309294
45	0x5b	0.0
46	0x46	-0.122449525
47	0x6b	0.093294874
48	0x5b	0.0
49	0xd6	0.71720433
50	0x61	0.03498558
51	0x6a	0.087463945
52	0x59	-0.011661859
53	0xff	0.9562725
54	0x34	-0.22740625
55	0x60	0.029154647
56	0x63	0.046647437
57	0x5e	0.01749279
58	0x60	0.029154647
59	0x5e	0.01749279
60	0x75	0.15160418
61	0x40	-0.1574351
62	0x5b	0.0
63	0x45	-0.12828045
64	0x73	0.13994232
65	0x54	-0.04081651
66	0x4e	-0.07580209
67	0x51	-0.058309294
68	0x6a	0.087463945
69	0x5c	0.0058309296
70	0x5e	0.01749279
71	0x7a	0.18075882
72	0x4e	-0.07580209
73	0x6d	0.10495673
74	0x64	0.052478366
75	0x5d	0.011661859
76	0x4f	-0.06997116
77	0x58	-0.01749279
78	0x4d	-0.08163302
79	0x55	-0.03498558
80	0x5b	0.0
81	0x5c	0.0058309296
82	0x68	0.07580209
83	0xbc	0.56560016
84	0x5b	0.0
85	0x48	-0.11078766
86	0x66	0.06414022
87	0x5f	0.023323718
88	0x5f	0.023323718
89	0x7b	0.18658975
90	0x66	0.06414022
91	0x66	0.06414022
92	0x3e	-0.16909696
93	0x5b	0.0
94	0x62	0.04081651
95	0x61	0.03498558
96	0x63	0.046647437
97	0x42	-0.14577325
98	0x5b	0.0
99	0x87	0.2565609
100	0x35	-0.22157532
101	0x7a	0.18075882
102	0x55	-0.03498558
103	0x72	0.13411137
104	0x25	-0.3148702
105	0x2c	-0.2740537
106	0x58	-0.01749279
107	0x5d	0.011661859
108	0x6d	0.10495673
109	0x4d	-0.08163302
110	0x7a	0.18075882
111	0x6a	0.087463945
112	0x5b	0.0
113	0x56	-0.029154647
114	0x6d	0.10495673
115	0x5b	0.0
116	0x6b	0.093294874
117	0x49	-0.10495673
118	0x79	0.17492789
119	0x55	-0.03498558
120	0x55	-0.03498558
121	0x74	0.14577325
122	0x4e	-0.07580209
123	0x52	-0.052478366
124	0x69	0.08163302
125	0x45	-0.12828045
126	0x5a	-0.0058309296
127	0xc0	0.5889239
128	0x01	-0.5247837
129	0x59	-0.011661859
130	0x73	0.13994232
131	0x5d	0.011661859
132	0x48	-0.11078766
133	0x54	-0.04081651
134	0x42	-0.14577325
135	0x6d	0.10495673
136	0x5c	0.0058309296
137	0x5e	0.01749279
138	0x5f	0.023323718
139	0x6f	0.11661859
140	0x54	-0.04081651
141	0x55	-0.03498558
142	0x6e	0.11078766
143	0x4f	-0.06997116
144	0x5b	0.0
145	0x5c	0.0058309296
146	0x45	-0.12828045
147	0x78	0.16909696
148	0x5b	0.0
149	0x57	-0.023323718
150	0x72	0.13411137
151	0x65	0.058309294
152	0x39	-0.1982516
153	0x6e	0.11078766
154	0x78	0.16909696
155	0x51	-0.058309294
156	0x56	-0.029154647
157	0x64	0.052478366
158	0x4e	-0.07580209
159	0x65	0.058309294
160	0x5b	0.0
161	0x5b	0.0
162	0x5b	0.0
163	0x5b	0.0
164	0x5b	0.0
165	0x5b	0.0
166	0x5b	0.0
167	0x5b	0.0
168	0x5b	0.0
169	0x5b	0.0
170	0x5b	0.0
171	0x5b	0.0
172	0x5b	0.0
173	0x5b	0.0
174	0x5b	0.0
175	0x5b	0.0
176	0x5b	0.0
177	0x5b	0.0
178	0x5b	0.0
179	0x5b	0.0
180	0x5b	0.0
181	0x5b	0.0
182	0x5b	0.0
183	0x5b	0.0
184	0x5b	0.0
185	0x5b	0.0
186	0x5b	0.0
187	0x5b	0.0
188	0x5b	0.0
189	0x5b	0.0
190	0x5b	0.0
191	0x5b	0.0
192	0x4c	-0.087463945
193	0x4c	-0.087463945
194	0x46	-0.122449525
195	0x60	0.029154647
196	0x4a	-0.0991258
197	0x01	-0.5247837
198	0x5d	0.011661859
199	0x57	-0.023323718
200	0x63	0.046647437
201	0x55	-0.03498558
202	0x6d	0.10495673
203	0x53	-0.046647437
204	0x57	-0.023323718
205	0x44	-0.13411137
206	0x6e	0.11078766
207	0x88	0.26239184
208	0x5b	0.0
209	0x66	0.06414022
210	0x5e	0.01749279
211	0x5e	0.01749279
212	0x42	-0.14577325
213	0x60	0.029154647
214	0x5d	0.011661859
215	0x71	0.12828045
216	0x64	0.052478366
217	0x4f	-0.06997116
218	0x5f	0.023323718
219	0x59	-0.011661859
220	0x57	-0.023323718
221	0x60	0.029154647
222	0x5c	0.0058309296
223	0x5f	0.023323718
224	0x6d	0.10495673
225	0x74	0.14577325
226	0x66	0.06414022
227	0x52	-0.052478366
228	0x50	-0.06414022
229	0x39	-0.1982516
230	0xae	0.48396716
231	0x81	0.22157532
232	0x4d	-0.08163302
233	0x8a	0.2740537
234	0x55	-0.03498558
235	0x4e	-0.07580209
236	0x14	-0.413996
237	0xa6	0.43731973
238	0x43	-0.13994232
239	0x4c	-0.087463945
240	0x5b	0.0
241	0x55	-0.03498558
242	0x9b	0.3731795
243	0x54	-0.04081651
244	0xa2	0.413996
245	0x4f	-0.06997116
246	0x48	-0.11078766
247	0x5c	0.0058309296
248	0x89	0.26822275
249	0x76	0.1574351
250	0x60	0.029154647
251	0x70	0.122449525
252	0x66	0.06414022
253	0x22	-0.33236298
254	0x8a	0.2740537
255	0x60	0.029154647
