mesa-24.1.x/src/gallium/targets/teflon/tests/mobiledet4.tflite (tflite, 20176 bytes, 1 tensors)

FeatureExtractor/MobileDetEdgeTPU/FusedConv/Conv/weights_quant/FakeQuantWithMinMaxVars u1 [128, 3, 3, 16] scale=0.0010390951 zero_point=135
-0.0041563804 0.0010390951 -0.008312761 0.024938282 -0.0072736656 0.0114300465 -0.0020781902 0.009351856
-0.0031172852 -0.0010390951 0.025977377 -0.029094663 -0.03636833 -0.014547331 -0.0155864265 -0.0031172852
0.0062345704 -0.0062345704 0.0051954756 0.014547331 0.0031172852 0.0062345704 -0.013508236 0.009351856
-0.0051954756 -0.0020781902 0.0155864265 -0.0020781902 -0.03221195 -0.016625522 0.0 0.0010390951
0.0041563804 0.0020781902 0.0020781902 0.0072736656 -0.0114300465 0.014547331 -0.0062345704 -0.0010390951
-0.009351856 -0.0051954756 0.008312761 0.0041563804 -0.0020781902 -0.010390951 0.0031172852 -0.0051954756
0.012469141 0.043641996 -0.010390951 -0.0114300465 0.027016472 -0.05091566 0.0 0.028055567
0.014547331 -0.008312761 0.0 0.008312761 -0.05715023 0.045720186 0.008312761 0.019742807
-0.0041563804 0.017664617 -0.0114300465 -0.013508236 0.024938282 -0.0155864265 -0.0031172852 0.008312761
0.009351856 0.008312761 -0.0051954756 0.016625522 -0.03429014 0.031172853 0.0062345704 0.028055567
-0.0010390951 -0.0051954756 -0.0010390951 0.0 0.0031172852 -0.0041563804 0.0010390951 0.0041563804
0.0041563804 0.0072736656 0.0 0.0020781902 0.0072736656 0.008312761 0.0114300465 -0.009351856
0.0155864265 0.043641996 0.021820998 -0.03429014 0.0020781902 -0.017664617 0.0020781902 -0.021820998
-0.020781903 -0.0020781902 -0.039485615 -0.0031172852 0.0031172852 0.04052471 0.0031172852 0.013508236
0.0051954756 0.021820998 -0.0020781902 -0.008312761 0.0010390951 -0.0072736656 0.009351856 -0.021820998
0.0 0.008312761 -0.019742807 0.0041563804 0.013508236 0.024938282 -0.0041563804 -0.008312761
0.0 -0.0051954756 0.0041563804 -0.0020781902 -0.008312761 0.0010390951 0.0010390951 -0.0114300465
0.0 -0.0010390951 0.0010390951 0.0062345704 0.009351856 0.0041563804 -0.0041563804 -0.0031172852
-0.012469141 -0.0010390951 0.009351856 -0.0020781902 -0.023899188 0.016625522 -0.017664617 -0.021820998
0.0051954756 0.0010390951 -0.0155864265 0.062345706 0.039485615 -0.0041563804 0.0114300465 -0.020781903
-0.023899188 0.0010390951 -0.012469141 0.03636833 -0.0010390951 0.025977377 0.0041563804 -0.009351856
0.010390951 0.05091566 -0.0062345704 -0.030133758 0.022860093 -0.017664617 -0.028055567 -0.03844652
-0.0041563804 0.0051954756 -0.0155864265 0.0051954756 -0.014547331 -0.0114300465 0.0010390951 0.008312761
-0.0041563804 0.0031172852 -0.0072736656 0.0020781902 -0.0062345704 0.013508236 0.008312761 0.0051954756
-0.0010390951 -0.0051954756 -0.017664617 0.009351856 0.0155864265 0.0010390951 0.013508236 -0.0020781902
-0.021820998 0.008312761 0.009351856 -0.020781903 -0.0062345704 -0.013508236 -0.0072736656 0.0041563804
0.010390951 -0.018703712 0.0010390951 0.0020781902 -0.0062345704 -0.012469141 0.019742807 0.012469141
0.012469141 -0.029094663 0.0020781902 -0.060267515 -0.021820998 0.0031172852 0.014547331 0.012469141
0.013508236 0.0062345704 0.025977377 -0.027016472 0.012469141 -0.014547331 -0.0114300465 0.012469141
-0.0062345704 -0.020781903 0.012469141 0.010390951 -0.027016472 0.009351856 0.0072736656 0.021820998
0.0051954756 -0.0041563804 -0.008312761 0.0020781902 -0.0010390951 0.0062345704 -0.010390951 -0.0031172852
-0.0062345704 0.0010390951 -0.0031172852 0.0072736656 0.0041563804 0.0041563804 0.0072736656 0.0020781902
00000000: 8388 7f9f 8092 8590 8486 a06b 6479 7884
00000010: 8d81 8c95 8a8d 7a90 8285 9685 6877 8788
00000020: 8b89 898e 7c95 8186 7e82 8f8b 857d 8a82
00000030: 93b1 7d7c a156 87a2 957f 878f 50b3 8f9a
00000040: 8398 7c7a 9f78 848f 908f 8297 66a5 8da2
00000050: 8682 8687 8a83 888b 8b8e 8789 8e8f 927e
00000060: 96b1 9c66 8976 8972 7385 6184 8aae 8a94
00000070: 8c9c 857f 8880 9072 878f 748b 949f 837f
00000080: 8782 8b85 7f88 887c 8786 888d 908b 8384
00000090: 7b86 9085 7097 7672 8c88 78c3 ad83 9273
000000a0: 7088 7baa 86a0 8b7e 91b8 816a 9d76 6c62
000000b0: 838c 788c 797c 888f 838a 8089 8194 8f8c
000000c0: 8682 7690 9688 9485 728f 9073 817a 808b
000000d0: 9175 8889 817b 9a93 936b 894d 728a 9593
000000e0: 948d a06d 9379 7c93 8173 9391 6d90 8e9c
000000f0: 8c83 7f89 868d 7d84 8188 848e 8b8b 8e89
