mesa-24.1.x/src/gallium/targets/teflon/tests/mobiledet75.tflite (tflite, 67312 bytes, 1 tensors)

FeatureExtractor/MobileDetEdgeTPU/C5_1_Conv2d_3_1x1_128/weights_quant/FakeQuantWithMinMaxVars u1 [128, 1, 1, 512] scale=0.002015781 zero_point=126
000000 81 82 8a 79 82 58 7c 5f 80 87 7b 77 82 84 61 7a
       0.006047343 0.008063124 0.024189372 -0.010078904 0.008063124 -0.07659967 -0.004031562 -0.062489208 0.004031562 0.018142028 -0.006047343 -0.014110466 0.008063124 0.012094686 -0.058457647 -0.008063124
000010 8a 7f 7b 8c 7c 74 7f 77 88 7c 8e 80 7f 71 9f 7c
       0.024189372 0.002015781 -0.006047343 0.028220933 -0.004031562 -0.020157808 0.002015781 -0.014110466 0.020157808 -0.004031562 0.032252494 0.004031562 0.002015781 -0.026205152 0.06652077 -0.004031562
000020 2a 8d 83 7e 72 66 93 87 76 76 77 7c a6 81 8c 5f
       -0.16932559 0.030236714 0.010078904 0.0 -0.024189372 -0.048378743 0.042331398 0.018142028 -0.016126247 -0.016126247 -0.014110466 -0.004031562 0.080631234 0.006047343 0.028220933 -0.062489208
000030 68 6e 83 86 84 84 7a 78 8b 75 74 9c 7c 83 70 6e
       -0.04434718 -0.032252494 0.010078904 0.016126247 0.012094686 0.012094686 -0.008063124 -0.012094686 0.026205152 -0.018142028 -0.020157808 0.060473427 -0.004031562 0.010078904 -0.028220933 -0.032252494
000040 86 a1 7a 74 82 6e 7c 7c 7d 7c 81 85 75 8a 7c 84
       0.016126247 0.070552334 -0.008063124 -0.020157808 0.008063124 -0.032252494 -0.004031562 -0.004031562 -0.002015781 -0.004031562 0.006047343 0.014110466 -0.018142028 0.024189372 -0.004031562 0.012094686
000050 4d 90 85 80 88 a0 62 6d 5c 70 7f 7c 76 81 6f 5a
       -0.09877326 0.036284056 0.014110466 0.004031562 0.020157808 0.06853655 -0.056441866 -0.034268275 -0.06853655 -0.028220933 0.002015781 -0.004031562 -0.016126247 0.006047343 -0.030236714 -0.07256811
000060 85 89 89 74 90 5d 7c 64 7c 72 86 7f 91 83 83 6e
       0.014110466 0.02217359 0.02217359 -0.020157808 0.036284056 -0.06652077 -0.004031562 -0.052410305 -0.004031562 -0.024189372 0.016126247 0.002015781 0.038299836 0.010078904 0.010078904 -0.032252494
000070 8c 96 77 6f 89 87 7b 94 6f 86 86 83 6c 6a 7e 74
       0.028220933 0.048378743 -0.014110466 -0.030236714 0.02217359 0.018142028 -0.006047343 0.04434718 -0.030236714 0.016126247 0.016126247 0.010078904 -0.036284056 -0.040315617 0.0 -0.020157808
000080 8c 9c 74 5d 8d 80 88 7f 85 8d 76 72 7a 80 77 6d
       0.028220933 0.060473427 -0.020157808 -0.06652077 0.030236714 0.004031562 0.020157808 0.002015781 0.014110466 0.030236714 -0.016126247 -0.024189372 -0.008063124 0.004031562 -0.014110466 -0.034268275
000090 7f 7c 86 8f 79 76 ac 74 85 98 7d 7d 77 66 78 7f
       0.002015781 -0.004031562 0.016126247 0.034268275 -0.010078904 -0.016126247 0.09272592 -0.020157808 0.014110466 0.052410305 -0.002015781 -0.002015781 -0.014110466 -0.048378743 -0.012094686 0.002015781
0000a0 76 84 84 7c 95 82 80 99 83 74 68 6d 85 80 77 85
       -0.016126247 0.012094686 0.012094686 -0.004031562 0.04636296 0.008063124 0.004031562 0.054426085 0.010078904 -0.020157808 -0.04434718 -0.034268275 0.014110466 0.004031562 -0.014110466 0.014110466
0000b0 69 86 7e 7b 85 86 79 70 a9 7f 8c 7e a7 66 83 6e
       -0.042331398 0.016126247 0.0 -0.006047343 0.014110466 0.016126247 -0.010078904 -0.028220933 0.08667858 0.002015781 0.028220933 0.0 0.08264702 -0.048378743 0.010078904 -0.032252494
0000c0 85 86 75 90 97 7a 80 71 77 8c 74 8e 57 87 a0 76
       0.014110466 0.016126247 -0.018142028 0.036284056 0.050394524 -0.008063124 0.004031562 -0.026205152 -0.014110466 0.028220933 -0.020157808 0.032252494 -0.07861546 0.018142028 0.06853655 -0.016126247
0000d0 81 6d 93 75 79 95 79 9e 97 7d 84 80 9e 5a 74 86
       0.006047343 -0.034268275 0.042331398 -0.018142028 -0.010078904 0.04636296 -0.010078904 0.06450499 0.050394524 -0.002015781 0.012094686 0.004031562 0.06450499 -0.07256811 -0.020157808 0.016126247
0000e0 79 84 67 4f 82 8c 6d 82 86 7c 8c 73 7a 92 6d 7f
       -0.010078904 0.012094686 -0.04636296 -0.0947417 0.008063124 0.028220933 -0.034268275 0.008063124 0.016126247 -0.004031562 0.028220933 -0.02217359 -0.008063124 0.040315617 -0.034268275 0.002015781
0000f0 7d 96 65 74 7f 6b 86 7d 80 80 7b 86 85 7d 7c 74
       -0.002015781 0.048378743 -0.050394524 -0.020157808 0.002015781 -0.038299836 0.016126247 -0.002015781 0.004031562 0.004031562 -0.006047343 0.016126247 0.014110466 -0.002015781 -0.004031562 -0.020157808
