mesa-24.1.x/src/gallium/targets/teflon/tests/mobiledet92.tflite (tflite, 4560 bytes, 1 tensors)

BoxPredictor_4/BoxEncodingPredictor_depthwise/weights_quant/FakeQuantWithMinMaxVars u1 [1, 3, 3, 256] scale=0.022392036 zero_point=136
00000000: 887f 7d8e 857f 937a 848d 9178 8b87 8d8b
00000010: 888c 8887 8290 8481 928f 7d7d 8b80 787a
00000020: 8489 8085 818a 8686 8890 8694 7c89 7f87
00000030: 8794 868b 888e 8484 8c7a 8881 8a8b 8784
00000040: 897f 8494 8c90 887b 7c81 8a7f 917b 8d82
00000050: 8986 8581 9486 8c86 807c 8e78 7c7f 8884
00000060: 788d 7e8b 876f 8489 7b80 7f7d 7b89 7d81
00000070: 858b 788d 798a 8876 8173 768b 8b89 7f81
00000080: 9286 8784 8b8d 8880 8c92 7d88 8386 8f8b
00000090: 8c78 7c7a 8384 968a 8482 8393 8582 8b88
000000a0: 888f 8889 7586 7d7e 8b86 8288 8e80 7f83
000000b0: 7989 4e7e 888a 7781 8984 838b 8476 8d80
000000c0: 8896 8886 8c90 6e87 8a8c 9387 8662 898d
000000d0: 8c77 8a8d 837e 888a 828a 8c8a 917e 8987
000000e0: 8184 9377 86a0 8a83 8f83 7c89 8596 7d8f
000000f0: 8082 858e 807f 9188 8a81 8486 8080 9690
0.0 -0.20152833 -0.2463124 0.13435222 -0.06717611 -0.20152833 0.2463124 -0.3134885
-0.089568146 0.11196018 0.20152833 -0.35827258 0.06717611 -0.022392036 0.11196018 0.06717611
0.0 0.089568146 0.0 -0.022392036 -0.13435222 0.17913629 -0.089568146 -0.15674426
0.22392036 0.15674426 -0.2463124 -0.2463124 0.06717611 -0.17913629 -0.35827258 -0.3134885
-0.089568146 0.022392036 -0.17913629 -0.06717611 -0.15674426 0.044784073 -0.044784073 -0.044784073
0.0 0.17913629 -0.044784073 0.26870444 -0.26870444 0.022392036 -0.20152833 -0.022392036
-0.022392036 0.26870444 -0.044784073 0.06717611 0.0 0.13435222 -0.089568146 -0.089568146
0.089568146 -0.3134885 0.0 -0.15674426 0.044784073 0.06717611 -0.022392036 -0.089568146
0.022392036 -0.20152833 -0.089568146 0.26870444 0.089568146 0.17913629 0.0 -0.29109648
-0.26870444 -0.15674426 0.044784073 -0.20152833 0.20152833 -0.29109648 0.11196018 -0.13435222
0.022392036 -0.044784073 -0.06717611 -0.15674426 0.26870444 -0.044784073 0.089568146 -0.044784073
-0.17913629 -0.26870444 0.13435222 -0.35827258 -0.26870444 -0.20152833 0.0 -0.089568146
-0.35827258 0.11196018 -0.22392036 0.06717611 -0.022392036 -0.5598009 -0.089568146 0.022392036
-0.29109648 -0.17913629 -0.20152833 -0.2463124 -0.29109648 0.022392036 -0.2463124 -0.15674426
-0.06717611 0.06717611 -0.35827258 0.11196018 -0.33588055 0.044784073 0.0 -0.40305665
-0.15674426 -0.47023275 -0.40305665 0.06717611 0.06717611 0.022392036 -0.20152833 -0.15674426
0.22392036 -0.044784073 -0.022392036 -0.089568146 0.06717611 0.11196018 0.0 -0.17913629
0.089568146 0.22392036 -0.2463124 0.0 -0.11196018 -0.044784073 0.15674426 0.06717611
0.089568146 -0.35827258 -0.26870444 -0.3134885 -0.11196018 -0.089568146 0.3134885 0.044784073
-0.089568146 -0.13435222 -0.11196018 0.2463124 -0.06717611 -0.13435222 0.06717611 0.0
0.0 0.15674426 0.0 0.022392036 -0.4254487 -0.044784073 -0.2463124 -0.22392036
0.06717611 -0.044784073 -0.13435222 0.0 0.13435222 -0.17913629 -0.20152833 -0.11196018
-0.33588055 0.022392036 -1.2987381 -0.22392036 0.0 0.044784073 -0.38066462 -0.15674426
0.022392036 -0.089568146 -0.11196018 0.06717611 -0.089568146 -0.40305665 0.11196018 -0.17913629
0.0 0.3134885 0.0 -0.044784073 0.089568146 0.17913629 -0.58219296 -0.022392036
0.044784073 0.089568146 0.2463124 -0.022392036 -0.044784073 -0.8508974 0.022392036 0.11196018
0.089568146 -0.38066462 0.044784073 0.11196018 -0.11196018 -0.22392036 0.0 0.044784073
-0.13435222 0.044784073 0.089568146 0.044784073 0.20152833 -0.22392036 0.022392036 -0.022392036
-0.15674426 -0.089568146 0.2463124 -0.38066462 -0.044784073 0.5374089 0.044784073 -0.11196018
0.15674426 -0.11196018 -0.26870444 0.022392036 -0.06717611 0.3134885 -0.2463124 0.15674426
-0.17913629 -0.13435222 -0.06717611 0.13435222 -0.17913629 -0.20152833 0.20152833 0.0
0.044784073 -0.15674426 -0.089568146 -0.044784073 -0.17913629 -0.17913629 0.3134885 0.17913629
