mesa-24.1.x/src/gallium/targets/teflon/tests/mobiledet9.tflite (tflite, 20176 bytes, 1 tensors)

FeatureExtractor/MobileDetEdgeTPU/FusedConv_2/Conv/weights_quant/FakeQuantWithMinMaxVars u1 [128, 3, 3, 16] scale=0.0012151428 zero_point=137
00000000: 808f 998d 828d 987f 8199 8292 7d86 8579
00000010: 9271 828f 6581 8f94 899a 7a8c 808d 9f79
00000020: 71a0 9482 8b7d 888b 8585 8086 7785 8c8a
00000030: 938c 918f 7f88 8874 839b 8b92 777f 857b
00000040: 883b 6b99 83c5 c19f a539 9f6f 517c a2c7
00000050: 92c3 9a76 a171 6a92 8873 7d7f 6392 8496
00000060: 8e94 9182 9b7f 8680 8094 9584 8b82 7c8c
00000070: 9484 8e85 977e 86ae 837d 9084 8595 87a6
00000080: 8bae 978b 8e78 7a8e 819b 8986 7087 7e8f
00000090: 838c 8986 937f 8f86 8e85 8388 888b 9089
000000a0: 7b9b 8186 8d85 9692 8c8a 8680 8e8d 7a8a
000000b0: 8384 7a8c 9079 8182 8a7d 8082 8291 9088
000000c0: 8285 9187 7e8c 8a82 8981 8f81 858e 878a
000000d0: 7ea4 a088 6aa5 97b8 8780 a57f 947a 7b8b
000000e0: 8682 9a91 8e91 859e 8f76 9987 8794 9b7a
000000f0: 8890 878a 8687 8f84 8f85 8e7d 8d8b 8688
-0.010936285 0.007290857 0.019442284 0.004860571 -0.008505999 0.004860571 0.018227141 -0.012151428
-0.009721142 0.019442284 -0.008505999 0.010936285 -0.014581714 -0.0036454285 -0.004860571 -0.019442284
0.010936285 -0.029163428 -0.008505999 0.007290857 -0.04374514 -0.009721142 0.007290857 0.013366571
0.0 0.020657428 -0.018227141 0.0036454285 -0.010936285 0.004860571 0.026733141 -0.019442284
-0.029163428 0.027948285 0.013366571 -0.008505999 0.0024302856 -0.014581714 -0.0012151428 0.0024302856
-0.004860571 -0.004860571 -0.010936285 -0.0036454285 -0.02187257 -0.004860571 0.0036454285 0.0012151428
0.012151428 0.0036454285 0.009721142 0.007290857 -0.012151428 -0.0012151428 -0.0012151428 -0.025517998
-0.007290857 0.02187257 0.0024302856 0.010936285 -0.02187257 -0.012151428 -0.004860571 -0.017011998
-0.0012151428 -0.09478114 -0.036454283 0.019442284 -0.007290857 0.072908565 0.06804799 0.026733141
0.034023996 -0.09721142 0.026733141 -0.031593714 -0.06804799 -0.015796857 0.030378569 0.075338855
0.010936285 0.07047828 0.020657428 -0.023087712 0.029163428 -0.029163428 -0.037669428 0.010936285
-0.0012151428 -0.026733141 -0.014581714 -0.012151428 -0.046175424 0.010936285 -0.006075714 0.015796857
0.006075714 0.013366571 0.009721142 -0.008505999 0.02187257 -0.012151428 -0.0036454285 -0.010936285
-0.010936285 0.013366571 0.014581714 -0.006075714 0.0024302856 -0.008505999 -0.015796857 0.0036454285
0.013366571 -0.006075714 0.006075714 -0.004860571 0.017011998 -0.013366571 -0.0036454285 0.044960283
-0.007290857 -0.014581714 0.008505999 -0.006075714 -0.004860571 0.014581714 -0.0024302856 0.03523914
0.0024302856 0.044960283 0.017011998 0.0024302856 0.006075714 -0.020657428 -0.018227141 0.006075714
-0.009721142 0.02187257 0.0 -0.0036454285 -0.030378569 -0.0024302856 -0.013366571 0.007290857
-0.007290857 0.0036454285 0.0 -0.0036454285 0.012151428 -0.012151428 0.007290857 -0.0036454285
0.006075714 -0.004860571 -0.007290857 -0.0012151428 -0.0012151428 0.0024302856 0.008505999 0.0
-0.017011998 0.02187257 -0.009721142 -0.0036454285 0.004860571 -0.004860571 0.015796857 0.010936285
0.0036454285 0.0012151428 -0.0036454285 -0.010936285 0.006075714 0.004860571 -0.018227141 0.0012151428
-0.007290857 -0.006075714 -0.018227141 0.0036454285 0.008505999 -0.019442284 -0.009721142 -0.008505999
0.0012151428 -0.014581714 -0.010936285 -0.008505999 -0.008505999 0.009721142 0.008505999 -0.0012151428
-0.008505999 -0.004860571 0.009721142 -0.0024302856 -0.013366571 0.0036454285 0.0012151428 -0.008505999
0.0 -0.009721142 0.007290857 -0.009721142 -0.004860571 0.006075714 -0.0024302856 0.0012151428
-0.013366571 0.032808855 0.027948285 -0.0012151428 -0.037669428 0.034023996 0.017011998 0.05711171
-0.0024302856 -0.010936285 0.034023996 -0.012151428 0.013366571 -0.018227141 -0.017011998 0.0024302856
-0.0036454285 -0.008505999 0.020657428 0.009721142 0.006075714 0.009721142 -0.004860571 0.025517998
0.007290857 -0.023087712 0.019442284 -0.0024302856 -0.0024302856 0.013366571 0.02187257 -0.018227141
-0.0012151428 0.008505999 -0.0024302856 0.0012151428 -0.0036454285 -0.0024302856 0.007290857 -0.006075714
0.007290857 -0.004860571 0.006075714 -0.014581714 0.004860571 0.0024302856 -0.0036454285 -0.0012151428
