mesa-24.1.x/src/gallium/targets/teflon/tests/mobiledet94.tflite (tflite, 2896 bytes, 1 tensors)

BoxPredictor_5/BoxEncodingPredictor_depthwise/weights_quant/FakeQuantWithMinMaxVars u1 [1, 3, 3, 128] scale=0.019107344 zero_point=123
000000 7b 7b 7b 7b 7b 7b 7b 7b 7b 7b 7b 7b 7b 7b 7b 7b
       0.0 0.0 0.0 0.0 0.0 0.0 0.0 0.0 0.0 0.0 0.0 0.0 0.0 0.0 0.0 0.0
000010 7b 7b 7b 7b 7b 7b 7b 7b 7b 7b 7b 7b 7b 7b 7b 7b
       0.0 0.0 0.0 0.0 0.0 0.0 0.0 0.0 0.0 0.0 0.0 0.0 0.0 0.0 0.0 0.0
000020 7b 7b 7b 7b 7b 7b 7b 7b 7b 7b 7b 7b 7b 7b 7b 7b
       0.0 0.0 0.0 0.0 0.0 0.0 0.0 0.0 0.0 0.0 0.0 0.0 0.0 0.0 0.0 0.0
000030 7b 7b 7b 7b 7b 7b 7b 7b 7b 7b 7b 7b 7b 7b 7b 7b
       0.0 0.0 0.0 0.0 0.0 0.0 0.0 0.0 0.0 0.0 0.0 0.0 0.0 0.0 0.0 0.0
000040 7b 7b 7b 7b 7b 7b 7b 7b 7b 7b 7b 7b 7b 7b 7b 7b
       0.0 0.0 0.0 0.0 0.0 0.0 0.0 0.0 0.0 0.0 0.0 0.0 0.0 0.0 0.0 0.0
000050 7b 7b 7b 7b 7b 7b 7b 7b 7b 7b 7b 7b 7b 7b 7b 7b
       0.0 0.0 0.0 0.0 0.0 0.0 0.0 0.0 0.0 0.0 0.0 0.0 0.0 0.0 0.0 0.0
000060 7b 7b 7b 7b 7b 7b 7b 7b 7b 7b 7b 7b 7b 7b 7b 7b
       0.0 0.0 0.0 0.0 0.0 0.0 0.0 0.0 0.0 0.0 0.0 0.0 0.0 0.0 0.0 0.0
000070 7b 7b 7b 7b 7b 7b 7b 7b 7b 7b 7b 7b 7b 7b 7b 7b
       0.0 0.0 0.0 0.0 0.0 0.0 0.0 0.0 0.0 0.0 0.0 0.0 0.0 0.0 0.0 0.0
000080 7b 7b 7b 7b 7b 7b 7b 7b 7b 7b 7b 7b 7b 7b 7b 7b
       0.0 0.0 0.0 0.0 0.0 0.0 0.0 0.0 0.0 0.0 0.0 0.0 0.0 0.0 0.0 0.0
000090 7b 7b 7b 7b 7b 7b 7b 7b 7b 7b 7b 7b 7b 7b 7b 7b
       0.0 0.0 0.0 0.0 0.0 0.0 0.0 0.0 0.0 0.0 0.0 0.0 0.0 0.0 0.0 0.0
0000a0 7b 7b 7b 7b 7b 7b 7b 7b 7b 7b 7b 7b 7b 7b 7b 7b
       0.0 0.0 0.0 0.0 0.0 0.0 0.0 0.0 0.0 0.0 0.0 0.0 0.0 0.0 0.0 0.0
0000b0 7b 7b 7b 7b 7b 7b 7b 7b 7b 7b 7b 7b 7b 7b 7b 7b
       0.0 0.0 0.0 0.0 0.0 0.0 0.0 0.0 0.0 0.0 0.0 0.0 0.0 0.0 0.0 0.0
0000c0 7b 7b 7b 7b 7b 7b 7b 7b 7b 7b 7b 7b 7b 7b 7b 7b
       0.0 0.0 0.0 0.0 0.0 0.0 0.0 0.0 0.0 0.0 0.0 0.0 0.0 0.0 0.0 0.0
0000d0 7b 7b 7b 7b 7b 7b 7b 7b 7b 7b 7b 7b 7b 7b 7b 7b
       0.0 0.0 0.0 0.0 0.0 0.0 0.0 0.0 0.0 0.0 0.0 0.0 0.0 0.0 0.0 0.0
0000e0 7b 7b 7b 7b 7b 7b 7b 7b 7b 7b 7b 7b 7b 7b 7b 7b
       0.0 0.0 0.0 0.0 0.0 0.0 0.0 0.0 0.0 0.0 0.0 0.0 0.0 0.0 0.0 0.0
0000f0 7b 7b 7b 7b 7b 7b 7b 7b 7b 7b 7b 7b 7b 7b 7b 7b
       0.0 0.0 0.0 0.0 0.0 0.0 0.0 0.0 0.0 0.0 0.0 0.0 0.0 0.0 0.0 0.0
