mesa-24.1.x/src/gallium/targets/teflon/tests/mobiledet86.tflite (tflite, 6224 bytes, 1 tensors)

BoxPredictor_1/BoxEncodingPredictor_depthwise/weights_quant/FakeQuantWithMinMaxVars u1 [1, 3, 3, 384] scale=0.018586913 zero_point=127
0	0x7f	0.0
1	0x7f	0.0
2	0x7f	0.0
3	0x80	0.018586913
4	0x80	0.018586913
5	0x7a	-0.092934564
6	0x7e	-0.018586913
7	0x7e	-0.018586913
8	0x84	0.092934564
9	0x83	0.07434765
10	0x81	0.037173826
11	0x7a	-0.092934564
12	0x80	0.018586913
13	0x7d	-0.037173826
14	0x86	0.13010839
15	0x80	0.018586913
16	0x7c	-0.05576074
17	0x7d	-0.037173826
18	0x88	0.16728222
19	0x80	0.018586913
20	0x7f	0.0
21	0x88	0.16728222
22	0x7d	-0.037173826
23	0x80	0.018586913
24	0x7e	-0.018586913
25	0x81	0.037173826
26	0x7f	0.0
27	0x82	0.05576074
28	0x85	0.11152148
29	0x7f	0.0
30	0x7f	0.0
31	0x7e	-0.018586913
32	0x80	0.018586913
33	0x7f	0.0
34	0x7b	-0.07434765
35	0x80	0.018586913
36	0x7f	0.0
37	0x7e	-0.018586913
38	0x84	0.092934564
39	0x7f	0.0
40	0x7f	0.0
41	0x7a	-0.092934564
42	0x77	-0.1486953
43	0x7f	0.0
44	0x7f	0.0
45	0x6d	-0.33456445
46	0x73	-0.22304296
47	0x7d	-0.037173826
48	0x74	-0.20445605
49	0x7c	-0.05576074
50	0x7f	0.0
51	0x7c	-0.05576074
52	0x7f	0.0
53	0x82	0.05576074
54	0x7e	-0.018586913
55	0x72	-0.24162987
56	0x81	0.037173826
57	0x7e	-0.018586913
58	0x71	-0.26021677
59	0x7f	0.0
60	0x86	0.13010839
61	0x7f	0.0
62	0x76	-0.16728222
63	0x7f	0.0
64	0x79	-0.11152148
65	0x7f	0.0
66	0x7e	-0.018586913
67	0x7f	0.0
68	0x7f	0.0
69	0x81	0.037173826
70	0x7f	0.0
71	0x7f	0.0
72	0x81	0.037173826
73	0x7e	-0.018586913
74	0x7f	0.0
75	0x7f	0.0
76	0x7f	0.0
77	0x7e	-0.018586913
78	0x7e	-0.018586913
79	0x83	0.07434765
80	0x7e	-0.018586913
81	0x7f	0.0
82	0x80	0.018586913
83	0x7d	-0.037173826
84	0x7d	-0.037173826
85	0x7f	0.0
86	0x83	0.07434765
87	0x79	-0.11152148
88	0x85	0.11152148
89	0x81	0.037173826
90	0x80	0.018586913
91	0x7f	0.0
92	0x87	0.1486953
93	0x82	0.05576074
94	0x7e	-0.018586913
95	0x84	0.092934564
96	0x7c	-0.05576074
97	0x80	0.018586913
98	0x7c	-0.05576074
99	0x7f	0.0
100	0x8e	0.2788037
101	0x7e	-0.018586913
102	0x80	0.018586913
103	0x7f	0.0
104	0x7b	-0.07434765
105	0x79	-0.11152148
106	0x78	-0.13010839
107	0x7a	-0.092934564
108	0x7d	-0.037173826
109	0x7f	0.0
110	0x7f	0.0
111	0x7f	0.0
112	0x82	0.05576074
113	0x7f	0.0
114	0x74	-0.20445605
115	0x7f	0.0
116	0x7a	-0.092934564
117	0x7e	-0.018586913
118	0x7f	0.0
119	0x7f	0.0
120	0x7c	-0.05576074
121	0x7f	0.0
122	0x7f	0.0
123	0x7b	-0.07434765
124	0x7f	0.0
125	0x7f	0.0
126	0x7d	-0.037173826
127	0x7f	0.0
128	0x81	0.037173826
129	0x7a	-0.092934564
130	0x80	0.018586913
131	0x84	0.092934564
132	0x83	0.07434765
133	0x7c	-0.05576074
134	0x7e	-0.018586913
135	0x83	0.07434765
136	0x7e	-0.018586913
137	0x76	-0.16728222
138	0x7f	0.0
139	0x7f	0.0
140	0x7b	-0.07434765
141	0x82	0.05576074
142	0x7f	0.0
143	0x7f	0.0
144	0x7b	-0.07434765
145	0x88	0.16728222
146	0x7f	0.0
147	0x79	-0.11152148
148	0x82	0.05576074
149	0x70	-0.2788037
150	0x7f	0.0
151	0x80	0.018586913
152	0x81	0.037173826
153	0x7e	-0.018586913
154	0x7c	-0.05576074
155	0x89	0.18586913
156	0x7f	0.0
157	0x7f	0.0
158	0x7d	-0.037173826
159	0x7f	0.0
160	0x7d	-0.037173826
161	0x82	0.05576074
162	0x84	0.092934564
163	0x7e	-0.018586913
164	0x84	0.092934564
165	0x74	-0.20445605
166	0x7f	0.0
167	0x82	0.05576074
168	0x80	0.018586913
169	0x80	0.018586913
170	0x83	0.07434765
171	0x7f	0.0
172	0x7f	0.0
173	0x7e	-0.018586913
174	0x84	0.092934564
175	0x82	0.05576074
176	0x82	0.05576074
177	0x80	0.018586913
178	0x87	0.1486953
179	0x8c	0.24162987
180	0x7e	-0.018586913
181	0x7c	-0.05576074
182	0x89	0.18586913
183	0x7f	0.0
184	0x7d	-0.037173826
185	0x80	0.018586913
186	0x81	0.037173826
187	0x7d	-0.037173826
188	0x7f	0.0
189	0x7f	0.0
190	0x84	0.092934564
191	0x7f	0.0
192	0x7d	-0.037173826
193	0x81	0.037173826
194	0x7f	0.0
195	0x77	-0.1486953
196	0x89	0.18586913
197	0x81	0.037173826
198	0x80	0.018586913
199	0x7f	0.0
200	0x81	0.037173826
201	0x84	0.092934564
202	0x73	-0.22304296
203	0x87	0.1486953
204	0x83	0.07434765
205	0x7e	-0.018586913
206	0x7e	-0.018586913
207	0x7f	0.0
208	0x7e	-0.018586913
209	0x7e	-0.018586913
210	0x83	0.07434765
211	0x88	0.16728222
212	0x7f	0.0
213	0x7f	0.0
214	0x7c	-0.05576074
215	0x80	0.018586913
216	0x7f	0.0
217	0x80	0.018586913
218	0x7d	-0.037173826
219	0x7d	-0.037173826
220	0x80	0.018586913
221	0x7e	-0.018586913
222	0x7f	0.0
223	0x7e	-0.018586913
224	0x7d	-0.037173826
225	0x7e	-0.018586913
226	0x83	0.07434765
227	0x87	0.1486953
228	0x7f	0.0
229	0x7a	-0.092934564
230	0x80	0.018586913
231	0x7d	-0.037173826
232	0x7c	-0.05576074
233	0x76	-0.16728222
234	0x81	0.037173826
235	0x7f	0.0
236	0x7f	0.0
237	0x7d	-0.037173826
238	0x7d	-0.037173826
239	0x7f	0.0
240	0x7d	-0.037173826
241	0x7a	-0.092934564
242	0x7f	0.0
243	0x78	-0.13010839
244	0x7e	-0.018586913
245	0x7f	0.0
246	0x81	0.037173826
247	0x7b	-0.07434765
248	0x7c	-0.05576074
249	0x7c	-0.05576074
250	0x7f	0.0
251	0x80	0.018586913
252	0x7f	0.0
253	0x7f	0.0
254	0x80	0.018586913
255	0x87	0.1486953
