mesa-24.1.x/src/gallium/targets/teflon/tests/mobiledet34.tflite (tflite, 22288 bytes, 1 tensors)

FeatureExtractor/MobileDetEdgeTPU/FusedConv_8/Conv_1/weights_quant/FakeQuantWithMinMaxVars u1 [72, 1, 1, 288] scale=0.025725437 zero_point=138
0.3344307 -0.2058035 -0.87466484 0.23152894 -0.15435262 -0.6431359 -0.07717631 -0.3344307
0.0 -0.15435262 -1.1576446 -0.28297982 -0.25725436 -0.2058035 -0.12862718 0.43733242
0.43733242 -0.6431359 0.30870524 -0.77176315 0.2058035 0.9775666 -0.4887833 0.43733242
-0.30870524 -1.0547429 0.77176315 -0.10290175 0.2058035 -0.46305788 0.0 0.36015612
0.411607 -0.2058035 0.051450875 -1.0290174 -0.46305788 -1.1061938 0.411607 0.38588157
-0.6431359 0.051450875 0.38588157 0.43733242 0.411607 -0.2058035 -0.6945868 0.9775666
-0.025725437 0.38588157 -0.07717631 0.46305788 0.28297982 -0.051450875 0.6431359 -0.2058035
0.07717631 0.0 -0.6174105 0.36015612 0.7974886 0.12862718 -0.2058035 -0.46305788
0.025725437 -0.6174105 0.9003903 0.46305788 0.28297982 -0.15435262 0.18007806 0.025725437
0.051450875 0.2058035 0.56595963 0.28297982 0.28297982 0.25725436 0.12862718 -0.74603766
0.10290175 -0.30870524 0.43733242 0.43733242 0.7974886 -0.3344307 0.28297982 -0.6688614
-0.6688614 -0.10290175 -1.646428 -0.2058035 0.30870524 0.15435262 0.12862718 -0.15435262
0.25725436 0.15435262 0.15435262 -0.56595963 0.15435262 -0.6174105 0.38588157 -0.6431359
0.5145087 -0.28297982 0.12862718 -0.025725437 0.7974886 -0.6431359 -0.051450875 0.77176315
-1.2862718 0.6174105 -0.28297982 -0.051450875 -0.5145087 0.38588157 -0.5145087 -0.25725436
-0.07717631 0.3344307 0.0 0.07717631 -0.23152894 -0.28297982 0.25725436 0.25725436
-1.1061938 0.38588157 -0.7974886 0.6174105 -0.36015612 -0.25725436 -0.07717631 -1.0804684
-0.18007806 0.7974886 0.74603766 0.823214 -0.30870524 0.74603766 0.4887833 0.823214
-0.12862718 0.3344307 -0.5145087 0.38588157 0.07717631 -0.10290175 0.10290175 -0.18007806
0.4887833 0.25725436 0.411607 -0.43733242 -0.38588157 -0.38588157 0.46305788 -0.9775666
0.2058035 0.2058035 -0.25725436 0.051450875 -0.74603766 -0.74603766 0.4887833 0.12862718
-0.43733242 0.46305788 -0.6431359 0.07717631 1.3377228 -0.43733242 -0.025725437 -0.72031224
-0.12862718 -1.1061938 -0.59168506 0.10290175 -0.3344307 0.56595963 0.46305788 -0.25725436
-0.38588157 -0.411607 0.10290175 -0.56595963 -0.25725436 -0.025725437 0.0 -0.46305788
1.2605464 -0.10290175 -0.38588157 -0.3344307 -0.12862718 0.38588157 0.12862718 -0.5402342
0.12862718 0.051450875 0.28297982 0.23152894 0.025725437 0.07717631 -0.30870524 -0.051450875
0.025725437 0.12862718 -0.18007806 -0.07717631 -0.025725437 -0.6945868 -0.28297982 0.15435262
0.18007806 -0.38588157 -0.46305788 -0.92611575 0.38588157 1.1576446 0.30870524 0.43733242
0.23152894 0.5145087 0.025725437 -0.23152894 -0.3344307 0.43733242 -0.2058035 0.0
1.6978788 -0.43733242 -0.12862718 0.07717631 0.823214 -0.2058035 -0.10290175 0.43733242
-1.1833701 0.0 -0.12862718 0.30870524 0.92611575 0.025725437 0.25725436 -0.2058035
-1.3119973 -0.25725436 0.10290175 -0.36015612 -0.28297982 0.72031224 0.72031224 -0.77176315
00000000: 9782 6893 8471 877d 8a84 5d7f 8082 859b
00000010: 9b71 966c 92b0 779b 7e61 a886 9278 8a98
00000020: 9a82 8c62 785f 9a99 718c 999b 9a82 6fb0
00000030: 8999 879c 9588 a382 8d8a 7298 a98f 8278
00000040: 8b72 ad9c 9584 918b 8c92 a095 9594 8f6d
00000050: 8e7e 9b9b a97d 9570 7086 4a82 9690 8f84
00000060: 9490 9074 9072 9971 9e7f 8f89 a971 88a8
00000070: 58a2 7f88 7699 7680 8797 8a8d 817f 9494
00000080: 5f99 6ba2 7c80 8760 83a9 a7aa 7ea7 9daa
00000090: 8597 7699 8d86 8e83 9d94 9a79 7b7b 9c64
000000a0: 9292 808c 6d6d 9d8f 799c 718d be79 896e
000000b0: 855f 738e 7da0 9c80 7b7a 8e74 8089 8a78
000000c0: bb86 7b7d 8599 8f75 8f8c 9593 8b8d 7e88
000000d0: 8b8f 8387 896f 7f90 917b 7866 99b7 969b
000000e0: 939e 8b81 7d9b 828a cc79 858d aa82 869b
000000f0: 5c8a 8596 ae8b 9482 5780 8e7c 7fa6 a66c
