mesa-24.1.x/src/gallium/targets/teflon/tests/mobiledet110.tflite (tflite, 143120 bytes, 1 tensors)

BoxPredictor_3/ClassPredictor/weights_quant/FakeQuantWithMinMaxVars u1 [546, 1, 1, 256] scale=0.0011700185 zero_point=151
0	0x8c	-0.012870203
1	0x91	-0.0070201107
2	0x8b	-0.014040221
3	0x8f	-0.009360148
4	0x8a	-0.01521024
5	0x93	-0.004680074
6	0x91	-0.0070201107
7	0x8c	-0.012870203
8	0x91	-0.0070201107
9	0x90	-0.008190129
10	0x8e	-0.010530166
11	0x94	-0.0035100554
12	0x93	-0.004680074
13	0x8d	-0.011700185
14	0x8b	-0.014040221
15	0x92	-0.0058500925
16	0x8f	-0.009360148
17	0x93	-0.004680074
18	0x93	-0.004680074
19	0x92	-0.0058500925
20	0x93	-0.004680074
21	0x8d	-0.011700185
22	0x91	-0.0070201107
23	0x8e	-0.010530166
24	0x92	-0.0058500925
25	0x8c	-0.012870203
26	0x8d	-0.011700185
27	0x8c	-0.012870203
28	0x93	-0.004680074
29	0x8c	-0.012870203
30	0x8d	-0.011700185
31	0x8b	-0.014040221
32	0x92	-0.0058500925
33	0x8a	-0.01521024
34	0x94	-0.0035100554
35	0x8f	-0.009360148
36	0x92	-0.0058500925
37	0x90	-0.008190129
38	0x92	-0.0058500925
39	0x91	-0.0070201107
40	0x8a	-0.01521024
41	0x92	-0.0058500925
42	0x8e	-0.010530166
43	0x93	-0.004680074
44	0x92	-0.0058500925
45	0x93	-0.004680074
46	0x94	-0.0035100554
47	0x95	-0.002340037
48	0x92	-0.0058500925
49	0x94	-0.0035100554
50	0x8c	-0.012870203
51	0x92	-0.0058500925
52	0x8b	-0.014040221
53	0x8d	-0.011700185
54	0x90	-0.008190129
55	0x8e	-0.010530166
56	0x91	-0.0070201107
57	0x91	-0.0070201107
58	0x8f	-0.009360148
59	0x8c	-0.012870203
60	0x8f	-0.009360148
61	0x8c	-0.012870203
62	0x8c	-0.012870203
63	0x94	-0.0035100554
64	0x94	-0.0035100554
65	0x94	-0.0035100554
66	0x90	-0.008190129
67	0x8c	-0.012870203
68	0x82	-0.024570387
69	0x90	-0.008190129
70	0x8c	-0.012870203
71	0x95	-0.002340037
72	0x92	-0.0058500925
73	0x95	-0.002340037
74	0x91	-0.0070201107
75	0x91	-0.0070201107
76	0x8d	-0.011700185
77	0x92	-0.0058500925
78	0x8b	-0.014040221
79	0x8f	-0.009360148
80	0x8b	-0.014040221
81	0x8e	-0.010530166
82	0x8c	-0.012870203
83	0x8f	-0.009360148
84	0x8f	-0.009360148
85	0x93	-0.004680074
86	0x96	-0.0011700185
87	0x92	-0.0058500925
88	0x92	-0.0058500925
89	0x90	-0.008190129
90	0x8b	-0.014040221
91	0x91	-0.0070201107
92	0x8b	-0.014040221
93	0x8d	-0.011700185
94	0x8d	-0.011700185
95	0x91	-0.0070201107
96	0x8d	-0.011700185
97	0x92	-0.0058500925
98	0x95	-0.002340037
99	0x93	-0.004680074
100	0x91	-0.0070201107
101	0x91	-0.0070201107
102	0x8e	-0.010530166
103	0x90	-0.008190129
104	0x8d	-0.011700185
105	0x94	-0.0035100554
106	0x8f	-0.009360148
107	0x8e	-0.010530166
108	0x94	-0.0035100554
109	0x8d	-0.011700185
110	0x8b	-0.014040221
111	0x8b	-0.014040221
112	0x93	-0.004680074
113	0x93	-0.004680074
114	0x8d	-0.011700185
115	0x90	-0.008190129
116	0x8e	-0.010530166
117	0x8c	-0.012870203
118	0x8c	-0.012870203
119	0x8b	-0.014040221
120	0x90	-0.008190129
121	0x93	-0.004680074
122	0x93	-0.004680074
123	0x92	-0.0058500925
124	0x93	-0.004680074
125	0x95	-0.002340037
126	0x96	-0.0011700185
127	0x92	-0.0058500925
128	0x8f	-0.009360148
129	0x92	-0.0058500925
130	0x8f	-0.009360148
131	0x8b	-0.014040221
132	0x8c	-0.012870203
133	0x90	-0.008190129
134	0x8f	-0.009360148
135	0x90	-0.008190129
136	0x90	-0.008190129
137	0x8c	-0.012870203
138	0x8f	-0.009360148
139	0x89	-0.016380258
140	0x8c	-0.012870203
141	0x90	-0.008190129
142	0x91	-0.0070201107
143	0x91	-0.0070201107
144	0x89	-0.016380258
145	0x95	-0.002340037
146	0x90	-0.008190129
147	0x8e	-0.010530166
148	0x91	-0.0070201107
149	0x90	-0.008190129
150	0x91	-0.0070201107
151	0x8c	-0.012870203
152	0x93	-0.004680074
153	0x8b	-0.014040221
154	0x86	-0.019890314
155	0x8d	-0.011700185
156	0x95	-0.002340037
157	0x94	-0.0035100554
158	0x92	-0.0058500925
159	0x93	-0.004680074
160	0x91	-0.0070201107
161	0x8d	-0.011700185
162	0x91	-0.0070201107
163	0x94	-0.0035100554
164	0x94	-0.0035100554
165	0x8e	-0.010530166
166	0x90	-0.008190129
167	0x94	-0.0035100554
168	0x8d	-0.011700185
169	0x8e	-0.010530166
170	0x91	-0.0070201107
171	0x8d	-0.011700185
172	0x92	-0.0058500925
173	0x95	-0.002340037
174	0x90	-0.008190129
175	0x91	-0.0070201107
176	0x8e	-0.010530166
177	0x93	-0.004680074
178	0x91	-0.0070201107
179	0x8c	-0.012870203
180	0x94	-0.0035100554
181	0x8a	-0.01521024
182	0x94	-0.0035100554
183	0x93	-0.004680074
184	0x8b	-0.014040221
185	0x90	-0.008190129
186	0x92	-0.0058500925
187	0x8b	-0.014040221
188	0x8c	-0.012870203
189	0x90	-0.008190129
190	0x88	-0.017550277
191	0x92	-0.0058500925
192	0x91	-0.0070201107
193	0x87	-0.018720295
194	0x8c	-0.012870203
195	0x96	-0.0011700185
196	0x90	-0.008190129
197	0x90	-0.008190129
198	0x91	-0.0070201107
199	0x8c	-0.012870203
200	0x8c	-0.012870203
201	0x94	-0.0035100554
202	0x92	-0.0058500925
203	0x93	-0.004680074
204	0x8b	-0.014040221
205	0x93	-0.004680074
206	0x91	-0.0070201107
207	0x8c	-0.012870203
208	0x8e	-0.010530166
209	0x92	-0.0058500925
210	0x92	-0.0058500925
211	0x8d	-0.011700185
212	0x92	-0.0058500925
213	0x8d	-0.011700185
214	0x8d	-0.011700185
215	0x92	-0.0058500925
216	0x94	-0.0035100554
217	0x8d	-0.011700185
218	0x8f	-0.009360148
219	0x92	-0.0058500925
220	0x91	-0.0070201107
221	0x8e	-0.010530166
222	0x8e	-0.010530166
223	0x88	-0.017550277
224	0x93	-0.004680074
225	0x93	-0.004680074
226	0x91	-0.0070201107
227	0x92	-0.0058500925
228	0x8e	-0.010530166
229	0x8f	-0.009360148
230	0x92	-0.0058500925
231	0x90	-0.008190129
232	0x91	-0.0070201107
233	0x91	-0.0070201107
234	0x95	-0.002340037
235	0x92	-0.0058500925
236	0x8c	-0.012870203
237	0x93	-0.004680074
238	0x8d	-0.011700185
239	0x8d	-0.011700185
240	0x8d	-0.011700185
241	0x93	-0.004680074
242	0x91	-0.0070201107
243	0x93	-0.004680074
244	0x92	-0.0058500925
245	0x8f	-0.009360148
246	0x8d	-0.011700185
247	0x94	-0.0035100554
248	0x90	-0.008190129
249	0x96	-0.0011700185
250	0x94	-0.0035100554
251	0x92	-0.0058500925
252	0x93	-0.004680074
253	0x93	-0.004680074
254	0x8c	-0.012870203
255	0x8a	-0.01521024
