mesa-24.1.x/src/gallium/targets/teflon/tests/mobiledet41.tflite (tflite, 56912 bytes, 1 tensors)

FeatureExtractor/MobileDetEdgeTPU/IBN_2/Conv_1/weights_quant/FakeQuantWithMinMaxVars u1 [96, 1, 1, 576] scale=0.007045479 zero_point=138
-0.1338641 -0.24659176 0.049318355 -0.056363832 -0.035227396 -0.028181916 -0.18318245 -0.07750027
0.24659176 0.0 -0.021136437 -0.07750027 -0.007045479 0.12681863 0.07750027 -0.042272873
-0.07045479 -0.07750027 0.007045479 -0.34522846 0.028181916 -0.042272873 0.0 0.028181916
-0.035227396 -0.007045479 -0.1338641 -0.049318355 -0.091591224 0.11977314 -0.028181916 -0.06340931
-0.007045479 0.1338641 -0.15500054 -0.049318355 0.0 0.08454575 0.19727342 -0.06340931
-0.021136437 -0.18318245 0.17613697 0.035227396 -0.049318355 -0.021136437 0.021136437 0.007045479
0.0 -0.1690915 -0.049318355 0.035227396 -0.056363832 -0.035227396 -0.042272873 0.19022794
-0.014090958 -0.028181916 0.014090958 -0.035227396 -0.014090958 -0.09863671 -0.007045479 -0.17613697
0.45795614 -0.112727664 0.091591224 -0.049318355 -0.021136437 -0.08454575 -0.035227396 -0.07750027
0.11977314 0.12681863 -0.091591224 -0.10568219 -0.07045479 0.042272873 0.1338641 0.014090958
-0.014090958 -0.035227396 0.007045479 -0.06340931 0.06340931 -0.09863671 0.07045479 -0.1338641
-0.10568219 -0.007045479 -0.24659176 -0.1338641 -0.08454575 -0.014090958 0.091591224 0.021136437
-0.08454575 -0.15500054 0.007045479 -0.07750027 -0.25363725 -0.14795506 -0.09863671 -0.18318245
-0.07045479 0.007045479 0.014090958 -0.15500054 0.1338641 -0.06340931 -0.1338641 0.035227396
-0.06340931 0.15500054 -0.091591224 -0.21136437 -0.09863671 0.07750027 0.042272873 -0.07045479
0.021136437 -0.056363832 -0.06340931 0.10568219 -0.10568219 -0.08454575 0.21136437 -0.06340931
-0.007045479 0.06340931 0.10568219 -0.07750027 0.10568219 0.0 -0.007045479 -0.10568219
-0.035227396 -0.056363832 -0.06340931 0.021136437 0.056363832 0.09863671 0.22545533 -0.19022794
0.056363832 0.08454575 0.19022794 -0.07750027 0.014090958 -0.056363832 0.11977314 -0.1690915
-0.056363832 -0.07750027 0.028181916 -0.049318355 0.091591224 -0.14795506 -0.2043189 -0.08454575
0.056363832 -0.035227396 -0.056363832 -0.028181916 0.19727342 -0.15500054 -0.049318355 0.028181916
0.10568219 0.028181916 0.014090958 -0.11977314 0.056363832 0.11977314 0.042272873 -0.014090958
-0.049318355 -0.17613697 0.049318355 0.091591224 0.028181916 0.11977314 0.028181916 0.10568219
-0.17613697 0.035227396 0.0 0.021136437 0.035227396 0.1338641 -0.021136437 -0.14090958
0.0 -0.014090958 -0.06340931 0.028181916 0.09863671 -0.049318355 -0.056363832 -0.10568219
-0.08454575 0.07045479 -0.2325008 0.10568219 0.09863671 -0.12681863 0.0 0.0
0.021136437 -0.12681863 -0.028181916 0.007045479 -0.049318355 0.028181916 0.028181916 -0.091591224
-0.028181916 0.28181916 -0.021136437 -0.08454575 -0.08454575 -0.07045479 0.12681863 0.035227396
0.07045479 -0.07045479 0.035227396 -0.07750027 -0.06340931 0.06340931 -0.10568219 -0.007045479
-0.1338641 -0.007045479 0.06340931 -0.14090958 0.12681863 0.007045479 0.112727664 -0.16204602
-0.2747737 0.007045479 0.07750027 -0.07045479 -0.056363832 0.042272873 0.021136437 0.21136437
-0.1338641 0.042272873 -0.10568219 -0.035227396 -0.007045479 -0.028181916 -0.021136437 -0.09863671
00000000: 7767 9182 8586 707f ad8a 877f 899c 9584
00000010: 807f 8b59 8e84 8a8e 8589 7783 7d9b 8681
00000020: 899d 7483 8a96 a681 8770 a38f 8387 8d8b
00000030: 8a72 838f 8285 84a5 8886 8c85 887c 8971
00000040: cb7a 9783 877e 857f 9b9c 7d7b 8090 9d8c
00000050: 8885 8b81 937c 9477 7b89 6777 7e88 978d
00000060: 7e74 8b7f 6675 7c70 808b 8c74 9d81 778f
00000070: 81a0 7d6c 7c95 9080 8d82 8199 7b7e a881
00000080: 8993 997f 998a 897b 8582 818d 9298 aa6f
00000090: 9296 a57f 8c82 9b72 827f 8e83 9775 6d7e
000000a0: 9285 8286 a674 838e 998e 8c79 929b 9088
000000b0: 8371 9197 8e9b 8e99 718f 8a8d 8f9d 8776
000000c0: 8a88 818e 9883 827b 7e94 6999 9878 8a8a
000000d0: 8d78 868b 838e 8e7d 86b2 877e 7e80 9c8f
000000e0: 9480 8f7f 8193 7b89 7789 9376 9c8b 9a73
000000f0: 638b 9580 8290 8da8 7790 7b85 8986 877c
