mesa-24.1.x/src/gallium/targets/teflon/tests/mobiledet6.tflite (tflite, 10720 bytes, 1 tensors)

FeatureExtractor/MobileDetEdgeTPU/FusedConv_1/Conv/weights_quant/FakeQuantWithMinMaxVars u1 [64, 3, 3, 16] scale=0.0016575037 zero_point=143
0	0x99	0.016575037
1	0x81	-0.023205051
2	0x8f	0.0
3	0x86	-0.014917533
4	0x8d	-0.0033150073
5	0x90	0.0016575037
6	0x87	-0.013260029
7	0x95	0.009945022
8	0x8d	-0.0033150073
9	0x92	0.004972511
10	0x90	0.0016575037
11	0x8b	-0.0066300146
12	0x7f	-0.026520059
13	0x91	0.0033150073
14	0x95	0.009945022
15	0x8e	-0.0016575037
16	0x84	-0.01823254
17	0x88	-0.011602526
18	0x8c	-0.004972511
19	0x8b	-0.0066300146
20	0x99	0.016575037
21	0x94	0.008287518
22	0x92	0.004972511
23	0x87	-0.013260029
24	0x8c	-0.004972511
25	0xa7	0.039780088
26	0x8d	-0.0033150073
27	0x8d	-0.0033150073
28	0x8d	-0.0033150073
29	0x9d	0.023205051
30	0x96	0.011602526
31	0x88	-0.011602526
32	0x93	0.0066300146
33	0x83	-0.019890044
34	0x8d	-0.0033150073
35	0x7a	-0.034807578
36	0x99	0.016575037
37	0x8a	-0.008287518
38	0x95	0.009945022
39	0x92	0.004972511
40	0x8a	-0.008287518
41	0x8d	-0.0033150073
42	0x92	0.004972511
43	0x99	0.016575037
44	0x83	-0.019890044
45	0x86	-0.014917533
46	0x92	0.004972511
47	0x90	0.0016575037
48	0x90	0.0016575037
49	0x8c	-0.004972511
50	0x95	0.009945022
51	0x7d	-0.029835066
52	0x90	0.0016575037
53	0x97	0.013260029
54	0x94	0.008287518
55	0x97	0.013260029
56	0x96	0.011602526
57	0x91	0.0033150073
58	0x91	0.0033150073
59	0x9a	0.01823254
60	0x88	-0.011602526
61	0x97	0.013260029
62	0x8e	-0.0016575037
63	0x8f	0.0
64	0x99	0.016575037
65	0x8f	0.0
66	0x82	-0.021547548
67	0x9e	0.024862554
68	0xab	0.046410102
69	0x9b	0.019890044
70	0x97	0.013260029
71	0x89	-0.009945022
72	0x9e	0.024862554
73	0xa2	0.03149257
74	0x74	-0.044752598
75	0xa8	0.041437592
76	0x9f	0.026520059
77	0xa8	0.041437592
78	0x8f	0.0
79	0x88	-0.011602526
80	0x90	0.0016575037
81	0x88	-0.011602526
82	0x98	0.014917533
83	0x89	-0.009945022
84	0x92	0.004972511
85	0x96	0.011602526
86	0x88	-0.011602526
87	0x8c	-0.004972511
88	0xa5	0.03646508
89	0x9c	0.021547548
90	0x85	-0.016575037
91	0x99	0.016575037
92	0x8c	-0.004972511
93	0x9a	0.01823254
94	0x89	-0.009945022
95	0x90	0.0016575037
96	0x8d	-0.0033150073
97	0x8e	-0.0016575037
98	0x9f	0.026520059
99	0x8a	-0.008287518
100	0x88	-0.011602526
101	0x8e	-0.0016575037
102	0x99	0.016575037
103	0x87	-0.013260029
104	0x8f	0.0
105	0x8a	-0.008287518
106	0x9e	0.024862554
107	0x8d	-0.0033150073
108	0x85	-0.016575037
109	0x81	-0.023205051
110	0x8c	-0.004972511
111	0x93	0.0066300146
112	0x94	0.008287518
113	0x83	-0.019890044
114	0x7c	-0.03149257
115	0x80	-0.024862554
116	0x9b	0.019890044
117	0x94	0.008287518
118	0x8d	-0.0033150073
119	0x90	0.0016575037
120	0x91	0.0033150073
121	0x9b	0.019890044
122	0x84	-0.01823254
123	0x8b	-0.0066300146
124	0x88	-0.011602526
125	0x92	0.004972511
126	0x91	0.0033150073
127	0x95	0.009945022
128	0x97	0.013260029
129	0x8c	-0.004972511
130	0x8a	-0.008287518
131	0x8a	-0.008287518
132	0x85	-0.016575037
133	0x8f	0.0
134	0x8b	-0.0066300146
135	0x8c	-0.004972511
136	0x8d	-0.0033150073
137	0x89	-0.009945022
138	0x8d	-0.0033150073
139	0x8c	-0.004972511
140	0x87	-0.013260029
141	0x8a	-0.008287518
142	0x8f	0.0
143	0x8a	-0.008287518
144	0x7f	-0.026520059
145	0x8b	-0.0066300146
146	0x8e	-0.0016575037
147	0x8f	0.0
148	0x8a	-0.008287518
149	0x8e	-0.0016575037
150	0x84	-0.01823254
151	0x8c	-0.004972511
152	0x8a	-0.008287518
153	0x8f	0.0
154	0x95	0.009945022
155	0x94	0.008287518
156	0x94	0.008287518
157	0x99	0.016575037
158	0x8b	-0.0066300146
159	0x8f	0.0
160	0x91	0.0033150073
161	0x98	0.014917533
162	0x81	-0.023205051
163	0x94	0.008287518
164	0x95	0.009945022
165	0x8a	-0.008287518
166	0x9c	0.021547548
167	0x8f	0.0
168	0x82	-0.021547548
169	0x91	0.0033150073
170	0x99	0.016575037
171	0x97	0.013260029
172	0x8b	-0.0066300146
173	0x95	0.009945022
174	0x91	0.0033150073
175	0x8e	-0.0016575037
176	0x8d	-0.0033150073
177	0x8f	0.0
178	0x8f	0.0
179	0x8f	0.0
180	0x93	0.0066300146
181	0x8c	-0.004972511
182	0x8f	0.0
183	0x91	0.0033150073
184	0x8a	-0.008287518
185	0x96	0.011602526
186	0x92	0.004972511
187	0x92	0.004972511
188	0x90	0.0016575037
189	0x9b	0.019890044
190	0x92	0.004972511
191	0x8f	0.0
192	0x83	-0.019890044
193	0x92	0.004972511
194	0x84	-0.01823254
195	0x91	0.0033150073
196	0x9a	0.01823254
197	0x8b	-0.0066300146
198	0x7e	-0.028177563
199	0x8c	-0.004972511
200	0x8e	-0.0016575037
201	0xa3	0.033150073
202	0x98	0.014917533
203	0x98	0.014917533
204	0x8d	-0.0033150073
205	0xa6	0.038122583
206	0x98	0.014917533
207	0x89	-0.009945022
208	0x83	-0.019890044
209	0xad	0.049725108
210	0x9b	0.019890044
211	0x98	0.014917533
212	0x97	0.013260029
213	0x8a	-0.008287518
214	0xc6	0.091162704
215	0x96	0.011602526
216	0xa8	0.041437592
217	0xa3	0.033150073
218	0xa8	0.041437592
219	0xa1	0.029835066
220	0x90	0.0016575037
221	0x6a	-0.061327636
222	0x90	0.0016575037
223	0x97	0.013260029
224	0x8e	-0.0016575037
225	0x9d	0.023205051
226	0x9c	0.021547548
227	0x93	0.0066300146
228	0x8b	-0.0066300146
229	0x8a	-0.008287518
230	0xb2	0.058012627
231	0x91	0.0033150073
232	0x8b	-0.0066300146
233	0x99	0.016575037
234	0x94	0.008287518
235	0x8e	-0.0016575037
236	0x83	-0.019890044
237	0x9c	0.021547548
238	0x8e	-0.0016575037
239	0x8b	-0.0066300146
240	0x8b	-0.0066300146
241	0x8c	-0.004972511
242	0x85	-0.016575037
243	0x93	0.0066300146
244	0x94	0.008287518
245	0x8c	-0.004972511
246	0x82	-0.021547548
247	0x8f	0.0
248	0x8e	-0.0016575037
249	0x98	0.014917533
250	0x8f	0.0
251	0x94	0.008287518
252	0x95	0.009945022
253	0x98	0.014917533
254	0x93	0.0066300146
255	0x8b	-0.0066300146
