mesa-24.1.x/src/gallium/targets/teflon/tests/mobiledet98.tflite (tflite, 28464 bytes, 1 tensors)

BoxPredictor_0/ClassPredictor/weights_quant/FakeQuantWithMinMaxVars u1 [273, 1, 1, 96] scale=0.0028670903 zero_point=121
000000 71 79 79 79 79 79 79 76 79 74 79 79 78 79 74 79
       -0.022936722 0.0 0.0 0.0 0.0 0.0 0.0 -0.008601271 0.0 -0.014335452 0.0 0.0 -0.0028670903 0.0 -0.014335452 0.0
000010 76 76 79 74 79 76 79 75 75 75 75 79 76 77 78 79
       -0.008601271 -0.008601271 0.0 -0.014335452 0.0 -0.008601271 0.0 -0.011468361 -0.011468361 -0.011468361 -0.011468361 0.0 -0.008601271 -0.0057341806 -0.0028670903 0.0
000020 76 78 76 74 79 75 75 79 79 76 75 71 79 79 79 74
       -0.008601271 -0.0028670903 -0.008601271 -0.014335452 0.0 -0.011468361 -0.011468361 0.0 0.0 -0.008601271 -0.011468361 -0.022936722 0.0 0.0 0.0 -0.014335452
000030 72 79 79 79 79 75 72 79 76 79 79 77 75 76 75 75
       -0.020069633 0.0 0.0 0.0 0.0 -0.011468361 -0.020069633 0.0 -0.008601271 0.0 0.0 -0.0057341806 -0.011468361 -0.008601271 -0.011468361 -0.011468361
000040 79 79 79 78 72 75 74 79 79 75 79 76 76 79 79 75
       0.0 0.0 0.0 -0.0028670903 -0.020069633 -0.011468361 -0.014335452 0.0 0.0 -0.011468361 0.0 -0.008601271 -0.008601271 0.0 0.0 -0.011468361
000050 76 79 74 76 75 76 79 76 79 79 79 74 79 79 79 75
       -0.008601271 0.0 -0.014335452 -0.008601271 -0.011468361 -0.008601271 0.0 -0.008601271 0.0 0.0 0.0 -0.014335452 0.0 0.0 0.0 -0.011468361
000060 65 79 79 79 79 79 79 7d 79 7b 79 79 79 79 4c 79
       -0.057341807 0.0 0.0 0.0 0.0 0.0 0.0 0.011468361 0.0 0.0057341806 0.0 0.0 0.0 0.0 -0.12901907 0.0
000070 7b 7b 79 79 79 9f 79 74 76 74 77 79 6f 75 79 79
       0.0057341806 0.0057341806 0.0 0.0 0.0 0.10894943 0.0 -0.014335452 -0.008601271 -0.014335452 -0.0057341806 0.0 -0.028670903 -0.011468361 0.0 0.0
000080 70 89 cf 55 79 59 72 79 79 5c 6f 37 79 79 79 a7
       -0.025803812 0.045873445 0.24656977 -0.10321525 0.0 -0.09174689 -0.020069633 0.0 0.0 -0.08314562 -0.028670903 -0.18922795 0.0 0.0 0.0 0.13188615
000090 62 79 79 79 79 5b 78 79 6d 79 79 e6 83 76 60 6a
       -0.06594308 0.0 0.0 0.0 0.0 -0.086012706 -0.0028670903 0.0 -0.034405082 0.0 0.0 0.31251284 0.028670903 -0.008601271 -0.07167726 -0.043006353
0000a0 79 79 79 7d 6d 82 23 79 79 79 79 7a 6c 79 79 7c
       0.0 0.0 0.0 0.011468361 -0.034405082 0.025803812 -0.24656977 0.0 0.0 0.0 0.0 0.0028670903 -0.037272174 0.0 0.0 0.008601271
0000b0 6f 79 7f 7b 7f 77 79 76 87 79 79 6c 79 79 79 6c
       -0.028670903 0.0 0.017202541 0.0057341806 0.017202541 -0.0057341806 0.0 -0.008601271 0.040139265 0.0 0.0 -0.037272174 0.0 0.0 0.0 -0.037272174
0000c0 62 79 79 79 79 79 79 7a 79 5b 79 79 7f 79 4b 79
       -0.06594308 0.0 0.0 0.0 0.0 0.0 0.0 0.0028670903 0.0 -0.086012706 0.0 0.0 0.017202541 0.0 -0.13188615 0.0
0000d0 6f 72 79 7c 79 6e 79 7a 9d 7d 7d 79 7f 58 74 79
       -0.028670903 -0.020069633 0.0 0.008601271 0.0 -0.031537995 0.0 0.0028670903 0.10321525 0.011468361 0.011468361 0.0 0.017202541 -0.09461398 -0.014335452 0.0
0000e0 7b 85 9c 31 79 64 68 79 79 75 8d 47 79 79 79 b2
       0.0057341806 0.034405082 0.10034816 -0.2064305 0.0 -0.060208894 -0.048740536 0.0 0.0 -0.011468361 0.057341807 -0.14335452 0.0 0.0 0.0 0.16342415
0000f0 50 79 79 79 79 5b 7a 79 94 79 79 7c 78 b5 6b 7e
       -0.1175507 0.0 0.0 0.0 0.0 -0.086012706 0.0028670903 0.0 0.077411436 0.0 0.0 0.008601271 -0.0028670903 0.17202541 -0.040139265 0.014335452
