mesa-24.1.x/src/gallium/targets/teflon/tests/mobiledet31.tflite (tflite, 42992 bytes, 1 tensors)

FeatureExtractor/MobileDetEdgeTPU/IBN_1/Conv_1/weights_quant/FakeQuantWithMinMaxVars u1 [72, 1, 1, 576] scale=0.012065814 zero_point=138
0.108592324 0.0844607 0.5429616 0.18098721 -0.49469838 0.012065814 0.09652651 0.37404022
-0.3378428 0.108592324 0.5429616 0.0844607 0.51883 0.7722121 0.2654479 0.06032907
-0.5067642 -0.09652651 -0.3378428 0.072394885 -0.32577696 0.1689214 -0.024131628 -0.21718465
0.024131628 0.19305302 0.06032907 -0.15685558 0.18098721 0.072394885 0.0 0.13272396
0.32577696 -0.048263256 -0.3499086 0.2775137 0.0 0.5067642 -0.36197442 -0.15685558
0.13272396 -0.18098721 -0.012065814 -0.47056675 0.1689214 0.19305302 -0.06032907 0.18098721
-0.024131628 -0.41023767 -0.36197442 -0.09652651 0.12065814 0.09652651 -0.12065814 0.012065814
0.28957954 0.2775137 -0.0844607 -0.036197443 0.024131628 -0.20511883 0.24131627 -0.6153565
0.28957954 -0.024131628 -0.12065814 -0.09652651 -0.3499086 0.072394885 -0.108592324 -0.036197443
0.32577696 -0.1689214 -0.21718465 -0.38610604 0.21718465 -0.036197443 0.49469838 0.37404022
-0.2775137 0.2654479 0.3378428 -0.09652651 -0.13272396 0.3499086 0.09652651 0.5912249
0.036197443 0.5308958 -0.3499086 0.072394885 0.15685558 0.21718465 0.24131627 0.44643512
-0.30164534 -0.024131628 0.39817187 0.09652651 0.024131628 -0.21718465 -0.2654479 0.072394885
0.41023767 -0.32577696 0.2654479 0.048263256 0.108592324 0.108592324 -0.012065814 -0.76014626
0.0 0.13272396 -0.18098721 0.024131628 -0.22925046 -0.48263255 0.1689214 0.2775137
0.32577696 -0.036197443 -0.09652651 -0.15685558 -0.2533821 0.49469838 -0.024131628 -0.18098721
0.0 -0.24131627 -0.036197443 -0.51883 0.24131627 0.76014626 0.30164534 -0.28957954
-0.012065814 -0.4223035 0.06032907 0.4343693 0.24131627 0.20511883 0.048263256 -0.13272396
-0.13272396 0.31371117 0.72394884 -0.012065814 0.19305302 0.31371117 0.31371117 -0.31371117
0.9652651 0.45850092 0.21718465 -0.28957954 -0.36197442 -0.5791591 0.108592324 0.31371117
-0.048263256 0.24131627 -0.06032907 -0.15685558 0.6032907 -0.19305302 0.31371117 -0.20511883
0.012065814 -0.14478977 0.22925046 0.39817187 -0.38610604 0.13272396 0.036197443 0.048263256
0.12065814 -0.32577696 -0.3499086 0.15685558 -0.0844607 -0.1689214 0.28957954 0.49469838
-0.5067642 0.6032907 0.24131627 0.048263256 -0.1689214 -0.24131627 -0.072394885 0.39817187
0.41023767 0.09652651 -0.036197443 -0.5067642 -0.0844607 0.18098721 0.19305302 0.28957954
-0.12065814 -0.19305302 0.0844607 0.048263256 0.108592324 0.5550274 -0.36197442 0.32577696
0.6032907 -0.15685558 0.2533821 0.13272396 -0.21718465 -0.06032907 -0.13272396 -0.06032907
0.0 -0.24131627 -0.49469838 -0.2533821 -0.108592324 -0.39817187 0.2775137 0.5550274
-0.15685558 -0.4223035 -0.09652651 0.19305302 -0.4223035 0.024131628 0.06032907 -0.19305302
0.13272396 -0.072394885 -0.024131628 0.024131628 0.15685558 -0.09652651 -0.19305302 -0.0844607
-0.3378428 0.108592324 -0.18098721 -0.30164534 -0.048263256 0.20511883 -0.30164534 -0.06032907
-0.108592324 0.28957954 -0.12065814 0.28957954 0.24131627 0.45850092 -0.13272396 -0.12065814
00000000: 9391 b799 618b 92a9 6e93 b791 b5ca a08f
00000010: 6082 6e90 6f98 8878 8c9a 8f7d 9990 8a95
00000020: a586 6da1 8ab4 6c7d 957b 8963 989a 8599
00000030: 8868 6c82 9492 808b a2a1 8387 8c79 9e57
00000040: a288 8082 6d90 8187 a57c 786a 9c87 b3a9
00000050: 73a0 a682 7fa7 92bb 8db6 6d90 979c 9eaf
00000060: 7188 ab92 8c78 7490 ac6f a08e 9393 894b
00000070: 8a95 7b8c 7762 98a1 a587 827d 75b3 887b
00000080: 8a76 875f 9ec9 a372 8967 8fae 9e9b 8e7f
00000090: 7fa4 c689 9aa4 a470 dab0 9c72 6c5a 93a4
000000a0: 869e 857d bc7a a479 8b7e 9dab 6a95 8d8e
000000b0: 946f 6d97 837c a2b3 60bc 9e8e 7c76 84ab
000000c0: ac92 8760 8399 9aa2 807a 918e 93b8 6ca5
000000d0: bc7d 9f95 7885 7f85 8a76 6175 8169 a1b8
000000e0: 7d67 829a 678c 8f7a 9584 888c 9782 7a83
000000f0: 6e93 7b71 869b 7185 81a2 80a2 9eb0 7f80
