mesa-24.1.x/src/gallium/targets/teflon/tests/mobiledet96.tflite (tflite, 2384 bytes, 1 tensors)

BoxPredictor_0/BoxEncodingPredictor/weights_quant/FakeQuantWithMinMaxVars u1 [12, 1, 1, 96] scale=0.0058236057 zero_point=177
000000 b1 ad aa b0 b0 ac b0 90 a5 a5 a6 b9 b2 b2 b3 b3
       0.0 -0.023294423 -0.04076524 -0.0058236057 -0.0058236057 -0.029118028 -0.0058236057 -0.192179 -0.06988327 -0.06988327 -0.06405966 0.046588846 0.0058236057 0.0058236057 0.011647211 0.011647211
000010 af ae ce a9 b1 ad af b0 a7 b4 c4 b0 ae b0 b2 b1
       -0.011647211 -0.017470818 0.16888456 -0.046588846 0.0 -0.023294423 -0.011647211 -0.0058236057 -0.058236055 0.017470818 0.110648505 -0.0058236057 -0.017470818 -0.0058236057 0.0058236057 0.0
000020 ad f6 b9 a3 ae b0 b2 c4 b1 ae be e7 fe ad b1 b0
       -0.023294423 0.4018288 0.046588846 -0.08153048 -0.017470818 -0.0058236057 0.0058236057 0.110648505 0.0 -0.017470818 0.07570688 0.3144747 0.44841763 -0.023294423 0.0 -0.0058236057
000030 bf ae b7 5f c2 b4 b3 b0 bd b1 b0 b2 b5 b0 ac bf
       0.08153048 -0.017470818 0.034941636 -0.47753567 0.099001296 0.017470818 0.011647211 -0.0058236057 0.06988327 0.0 -0.0058236057 0.0058236057 0.023294423 -0.0058236057 -0.029118028 0.08153048
000040 b3 ac b1 b2 b2 a6 ad b1 b2 b3 b1 aa b1 b9 b9 bb
       0.011647211 -0.029118028 0.0 0.0058236057 0.0058236057 -0.06405966 -0.023294423 0.0 0.0058236057 0.011647211 0.0 -0.04076524 0.0 0.046588846 0.046588846 0.058236055
000050 b3 af b2 af ad b0 b2 bb b1 b7 bf b1 ae b1 a2 bb
       0.011647211 -0.011647211 0.0058236057 -0.011647211 -0.023294423 -0.0058236057 0.0058236057 0.058236055 0.0 0.034941636 0.08153048 0.0 -0.017470818 0.0 -0.08735409 0.058236055
000060 ba af b2 b1 b0 ae b1 b2 b0 b0 b0 b4 b1 db ad d2
       0.05241245 -0.011647211 0.0058236057 0.0 -0.0058236057 -0.017470818 0.0 0.0058236057 -0.0058236057 -0.0058236057 -0.0058236057 0.017470818 0.0 0.24459144 -0.023294423 0.192179
000070 aa b1 b1 b2 b8 ae b1 9d b7 b4 b1 b4 b1 b1 b1 ac
       -0.04076524 0.0 0.0 0.0058236057 0.04076524 -0.017470818 0.0 -0.11647211 0.034941636 0.017470818 0.0 0.017470818 0.0 0.0 0.0 -0.029118028
000080 b0 af b6 b1 b1 b1 b0 b4 b5 b4 b3 b2 b0 b2 bb ad
       -0.0058236057 -0.011647211 0.029118028 0.0 0.0 0.0 -0.0058236057 0.017470818 0.023294423 0.017470818 0.011647211 0.0058236057 -0.0058236057 0.0058236057 0.058236055 -0.023294423
000090 b1 df af b1 c2 b3 b7 b2 af b2 b2 be a1 a6 b2 b1
       0.0 0.26788586 -0.011647211 0.0 0.099001296 0.011647211 0.034941636 0.0058236057 -0.011647211 0.0058236057 0.0058236057 0.07570688 -0.09317769 -0.06405966 0.0058236057 0.0
0000a0 c8 b1 c1 b0 b3 af b5 a8 b1 b3 b2 b0 d7 b1 b2 b2
       0.13394293 0.0 0.09317769 -0.0058236057 0.011647211 -0.011647211 0.023294423 -0.05241245 0.0 0.011647211 0.0058236057 -0.0058236057 0.22129701 0.0 0.0058236057 0.0058236057
0000b0 ba ba af b0 b1 ad ba b0 35 b2 b1 ae af af b0 b1
       0.05241245 0.05241245 -0.011647211 -0.0058236057 0.0 -0.023294423 0.05241245 -0.0058236057 -0.7221271 0.0058236057 0.0 -0.017470818 -0.011647211 -0.011647211 -0.0058236057 0.0
0000c0 b1 b6 ba b0 b0 ac ac 9c a9 ac b0 ac b3 a7 ad a6
       0.0 0.029118028 0.05241245 -0.0058236057 -0.0058236057 -0.029118028 -0.029118028 -0.12229572 -0.046588846 -0.029118028 -0.0058236057 -0.029118028 0.011647211 -0.058236055 -0.023294423 -0.06405966
0000d0 b1 b4 89 ae b5 bc af b2 b8 48 ce b0 a8 b0 af b1
       0.0 0.017470818 -0.23294422 -0.017470818 0.023294423 0.06405966 -0.011647211 0.0058236057 0.04076524 -0.6114786 0.16888456 -0.0058236057 -0.05241245 -0.0058236057 -0.011647211 0.0
0000e0 ac f7 95 a3 ab af ae 15 af a9 b6 b8 ae b0 ae b1
       -0.029118028 0.4076524 -0.16306096 -0.08153048 -0.034941636 -0.011647211 -0.017470818 -0.9084825 -0.011647211 -0.046588846 0.029118028 0.04076524 -0.017470818 -0.0058236057 -0.017470818 0.0
0000f0 b1 98 b4 e0 63 a7 97 aa a9 b1 b2 b1 b0 b4 bc b1
       0.0 -0.14559014 0.017470818 0.27370948 -0.45424125 -0.058236055 -0.15141375 -0.04076524 -0.046588846 0.0 0.0058236057 0.0 -0.0058236057 0.017470818 0.06405966 0.0
