mesa-24.1.x/src/gallium/targets/teflon/tests/mobiledet27.tflite (tflite, 5408 bytes, 1 tensors)

FeatureExtractor/MobileDetEdgeTPU/IBN/SeparableConv2d/weights_quant/FakeQuantWithMinMaxVars u1 [1, 3, 3, 320] scale=0.011841012 zero_point=128
00000000: 9b91 8c76 95b9 93b7 96ad 6978 5889 969e
00000010: 966c 959e 7098 4d92 9299 7693 9799 8f98
00000020: 6173 908f b1e6 699b 794c 587c 975a 9ca0
00000030: 6e6b 547b 9371 767d ae91 6f99 9481 8aa0
00000040: 8bb3 8985 a0aa 6c96 9b6f 9e83 95b0 9996
00000050: b096 a9a0 9ab3 656c 95a2 976b 968f 887d
00000060: b590 6c83 627d 6fb7 8f67 b198 af99 5ba8
00000070: 736e 8272 b491 4d5e a09f 96a8 6a9e f07c
00000080: b59a 8a71 7770 aa77 979c 8598 7197 916a
00000090: 8f90 9893 99b0 8a94 b399 9453 558f 8e6e
000000a0: 90da 4d5e 939e 945e 77af 9a99 9bb1 7dae
000000b0: 8f74 6c4f 8b9e 648b aa55 6073 a39c 9773
000000c0: b299 9a68 7093 9c94 a497 8f99 8343 9d7e
000000d0: 989b a571 6c6f 8297 9c6f 7171 ac93 999d
000000e0: 9592 65af ca91 a58e b96b 699a 93a6 6c81
000000f0: 73a0 8e9c a5b0 b85b 74a4 82b0 738a 94a9
0.31970733 0.20129721 0.14209214 -0.118410125 0.24866125 0.67493767 0.22497924 0.65125567
0.26050228 0.53284556 -0.27234328 -0.0947281 -0.4736405 0.10656911 0.26050228 0.35523036
0.26050228 -0.23682025 0.24866125 0.35523036 -0.1894562 0.28418428 -0.6038916 0.21313822
0.21313822 0.2960253 -0.118410125 0.22497924 0.27234328 0.2960253 0.17761518 0.28418428
-0.3670714 -0.15393315 0.1894562 0.17761518 0.5802096 1.2077832 -0.27234328 0.31970733
-0.08288708 -0.6157326 -0.4736405 -0.04736405 0.27234328 -0.44995847 0.33154833 0.3789124
-0.21313822 -0.24866125 -0.52100456 -0.059205063 0.22497924 -0.17761518 -0.118410125 -0.035523035
0.54468656 0.20129721 -0.20129721 0.2960253 0.23682025 0.011841012 0.118410125 0.3789124
0.13025114 0.6038916 0.10656911 0.059205063 0.3789124 0.4973225 -0.23682025 0.26050228
0.31970733 -0.20129721 0.35523036 0.035523035 0.24866125 0.56836855 0.2960253 0.26050228
0.56836855 0.26050228 0.4854815 0.3789124 0.3078663 0.6038916 -0.31970733 -0.23682025
0.24866125 0.40259442 0.27234328 -0.24866125 0.26050228 0.17761518 0.0947281 -0.035523035
0.62757367 0.1894562 -0.23682025 0.035523035 -0.35523036 -0.035523035 -0.20129721 0.65125567
0.17761518 -0.2960253 0.5802096 0.28418428 0.55652755 0.2960253 -0.43811744 0.4736405
-0.15393315 -0.21313822 0.023682024 -0.16577417 0.6157326 0.20129721 -0.6038916 -0.40259442
0.3789124 0.3670714 0.26050228 0.4736405 -0.26050228 0.35523036 1.3261933 -0.04736405
0.62757367 0.3078663 0.118410125 -0.17761518 -0.10656911 -0.1894562 0.4973225 -0.10656911
0.27234328 0.33154833 0.059205063 0.28418428 -0.17761518 0.27234328 0.20129721 -0.26050228
0.17761518 0.1894562 0.28418428 0.22497924 0.2960253 0.56836855 0.118410125 0.23682025
0.6038916 0.2960253 0.23682025 -0.53284556 -0.5091635 0.17761518 0.16577417 -0.21313822
0.1894562 1.0656911 -0.6038916 -0.40259442 0.22497924 0.35523036 0.23682025 -0.40259442
-0.10656911 0.55652755 0.3078663 0.2960253 0.31970733 0.5802096 -0.035523035 0.54468656
0.17761518 -0.14209214 -0.23682025 -0.5802096 0.13025114 0.35523036 -0.33154833 0.13025114
0.4973225 -0.5091635 -0.3789124 -0.15393315 0.41443542 0.33154833 0.27234328 -0.15393315
0.5920506 0.2960253 0.3078663 -0.28418428 -0.1894562 0.22497924 0.33154833 0.23682025
0.42627645 0.27234328 0.17761518 0.2960253 0.035523035 -0.7223017 0.34338936 -0.023682024
0.28418428 0.31970733 0.43811744 -0.17761518 -0.23682025 -0.20129721 0.023682024 0.27234328
0.33154833 -0.20129721 -0.17761518 -0.17761518 0.52100456 0.22497924 0.2960253 0.34338936
0.24866125 0.21313822 -0.31970733 0.55652755 0.8762349 0.20129721 0.43811744 0.16577417
0.67493767 -0.24866125 -0.27234328 0.3078663 0.22497924 0.44995847 -0.23682025 0.011841012
-0.15393315 0.3789124 0.16577417 0.33154833 0.43811744 0.56836855 0.66309667 -0.43811744
-0.14209214 0.42627645 0.023682024 0.56836855 -0.15393315 0.118410125 0.23682025 0.4854815
