mesa-24.1.x/src/gallium/targets/teflon/tests/mobiledet66.tflite (tflite, 13728 bytes, 1 tensors)

FeatureExtractor/MobileDetEdgeTPU/IBN_9/SeparableConv2d/weights_quant/FakeQuantWithMinMaxVars u1 [1, 3, 3, 960] scale=0.014256448 zero_point=121
000000 84 86 8e 75 83 7b 96 6d 61 79 6f 91 8d 7f 76 89
       0.15682092 0.18533382 0.2993854 -0.05702579 0.14256448 0.028512895 0.41343698 -0.17107737 -0.34215474 0.0 -0.14256448 0.34215474 0.28512895 0.085538685 -0.042769343 0.22810316
000010 8c 70 8b 8d 78 79 95 83 89 80 79 7c 83 88 79 8d
       0.2708725 -0.12830803 0.25661606 0.28512895 -0.014256448 0.0 0.39918053 0.14256448 0.22810316 0.09979513 0.0 0.042769343 0.14256448 0.21384671 0.0 0.28512895
000020 7a 8e a2 6a 75 9c 6a 7b 74 7a 75 bc 82 8a 83 b1
       0.014256448 0.2993854 0.5845144 -0.21384671 -0.05702579 0.49897566 -0.21384671 0.028512895 -0.07128224 0.014256448 -0.05702579 0.95518196 0.12830803 0.24235961 0.14256448 0.79836106
000030 8d 75 a2 6a 86 7c 6b 57 8a 87 81 96 74 87 75 92
       0.28512895 -0.05702579 0.5845144 -0.21384671 0.18533382 0.042769343 -0.19959027 -0.48471922 0.24235961 0.19959027 0.11405158 0.41343698 -0.07128224 0.19959027 -0.05702579 0.3564112
000040 90 80 85 7b 73 80 7d 8b 66 9d 99 92 81 5e 8a 77
       0.3278983 0.09979513 0.17107737 0.028512895 -0.085538685 0.09979513 0.05702579 0.25661606 -0.2708725 0.5132321 0.45620632 0.3564112 0.11405158 -0.38492408 0.24235961 -0.028512895
000050 86 87 7b 73 87 95 7f 66 a7 7c a2 8d 7b 6b 81 76
       0.18533382 0.19959027 0.028512895 -0.085538685 0.19959027 0.39918053 0.085538685 -0.2708725 0.6557966 0.042769343 0.5845144 0.28512895 0.028512895 -0.19959027 0.11405158 -0.042769343
000060 89 ac 7a 75 77 78 94 6d 86 79 aa 8e 7b 9b 7e 93
       0.22810316 0.7270788 0.014256448 -0.05702579 -0.028512895 -0.014256448 0.38492408 -0.17107737 0.18533382 0.0 0.69856596 0.2993854 0.028512895 0.48471922 0.07128224 0.37066764
000070 89 7b 7d 93 64 6d 9a 8a 5e 99 7c 77 82 79 96 89
       0.22810316 0.028512895 0.05702579 0.37066764 -0.2993854 -0.17107737 0.47046277 0.24235961 -0.38492408 0.45620632 0.042769343 -0.028512895 0.12830803 0.0 0.41343698 0.22810316
000080 a3 91 85 86 7f 84 8c 6c 95 75 62 7f 8a 89 74 7e
       0.5987708 0.34215474 0.17107737 0.18533382 0.085538685 0.15682092 0.2708725 -0.18533382 0.39918053 -0.05702579 -0.3278983 0.085538685 0.24235961 0.22810316 -0.07128224 0.07128224
000090 89 71 7c 8f 6c 68 7a 86 79 81 8e 7d 5e 8b 7f 87
       0.22810316 -0.11405158 0.042769343 0.31364185 -0.18533382 -0.24235961 0.014256448 0.18533382 0.0 0.11405158 0.2993854 0.05702579 -0.38492408 0.25661606 0.085538685 0.19959027
0000a0 5b 7b 77 7e 89 73 85 7e 82 69 7b 78 9d 84 96 61
       -0.42769343 0.028512895 -0.028512895 0.07128224 0.22810316 -0.085538685 0.17107737 0.07128224 0.12830803 -0.22810316 0.028512895 -0.014256448 0.5132321 0.15682092 0.41343698 -0.34215474
0000b0 83 71 82 69 70 6d 79 90 76 85 97 6c 89 7b 9b 7a
       0.14256448 -0.11405158 0.12830803 -0.22810316 -0.12830803 -0.17107737 0.0 0.3278983 -0.042769343 0.17107737 0.42769343 -0.18533382 0.22810316 0.028512895 0.48471922 0.014256448
0000c0 84 af 84 9d 85 80 9a 93 9c 82 64 80 9d b8 81 7b
       0.15682092 0.76984817 0.15682092 0.5132321 0.17107737 0.09979513 0.47046277 0.37066764 0.49897566 0.12830803 -0.2993854 0.09979513 0.5132321 0.89815617 0.11405158 0.028512895
0000d0 86 73 88 9f 82 7d 7d 7f 7d 72 82 97 80 6a 81 76
       0.18533382 -0.085538685 0.21384671 0.541745 0.12830803 0.05702579 0.05702579 0.085538685 0.05702579 -0.09979513 0.12830803 0.42769343 0.09979513 -0.21384671 0.11405158 -0.042769343
0000e0 8a 7d 7c 3c 76 83 89 8e 84 89 93 8d a7 86 97 88
       0.24235961 0.05702579 0.042769343 -0.86964333 -0.042769343 0.14256448 0.22810316 0.2993854 0.15682092 0.22810316 0.37066764 0.28512895 0.6557966 0.18533382 0.42769343 0.21384671
0000f0 8d 94 83 7a 7d 94 67 8b 83 85 99 8a 78 84 72 76
       0.28512895 0.38492408 0.14256448 0.014256448 0.05702579 0.38492408 -0.25661606 0.25661606 0.14256448 0.17107737 0.45620632 0.24235961 -0.014256448 0.15682092 -0.09979513 -0.042769343
