mesa-24.1.x/src/gallium/targets/teflon/tests/mobiledet40.tflite (tflite, 17952 bytes, 1 tensors)

FeatureExtractor/MobileDetEdgeTPU/IBN_2/SeparableConv2d/weights_quant/FakeQuantWithMinMaxVars u1 [1, 5, 5, 576] scale=0.014840754 zero_point=113
00000000: 7160 7c77 7271 7184 686d 7274 7444 917e
00000010: 7470 6f73 7a1c 8a71 7b72 837b 6277 6574
00000020: 7095 6e6a 6787 836f 8276 7175 747f 6c9d
00000030: 707a 6071 6d71 72ad 6e76 7e71 736d 8265
00000040: 7682 6e5f 7862 756e 8873 7587 7f79 7067
00000050: 7070 7c5c 72a0 7575 7070 6e73 7086 795b
00000060: 649c 6f74 7f67 7c7a 7d7e a97a 735a 8e70
00000070: 7273 9772 737f 6670 7b7f 6f76 7375 5d72
00000080: 7369 a365 7c46 7551 716b 906e 7273 6b7b
00000090: 71bd 876d 8679 757f 7574 7c7e ac75 7d74
000000a0: 6d70 718d 9766 7880 8175 7761 9069 5c89
000000b0: 6c6d 7875 7789 7b9c 7881 7178 796d 7569
000000c0: 6e6e 955f 7a73 7470 c971 6d87 8068 7f64
000000d0: 7664 7972 736d 7570 6f77 6e70 7992 8776
000000e0: 628c 7171 8276 9b70 7e71 89a6 856b 7168
000000f0: 5a6e 7276 5b74 816f 7272 965e 7970 8673
0.0 -0.2522928 0.16324829 0.089044526 0.014840754 0.0 0.0 0.28197432
-0.13356678 -0.059363015 0.014840754 0.044522263 0.044522263 -0.6678339 0.47490412 0.1929298
0.044522263 -0.014840754 -0.029681507 0.029681507 0.13356678 -1.2614641 0.37101886 0.0
0.14840753 0.014840754 0.26713356 0.14840753 -0.22261131 0.089044526 -0.17808905 0.044522263
-0.014840754 0.5342671 -0.044522263 -0.10388528 -0.14840753 0.32649657 0.26713356 -0.029681507
0.2522928 0.07420377 0.0 0.059363015 0.044522263 0.20777056 -0.07420377 0.65299314
-0.014840754 0.13356678 -0.2522928 0.0 -0.059363015 0.0 0.014840754 0.89044523
-0.044522263 0.07420377 0.1929298 0.0 0.029681507 -0.059363015 0.2522928 -0.17808905
0.07420377 0.2522928 -0.044522263 -0.26713356 0.10388528 -0.22261131 0.059363015 -0.044522263
0.34133732 0.029681507 0.059363015 0.32649657 0.20777056 0.11872603 -0.014840754 -0.14840753
-0.014840754 -0.014840754 0.16324829 -0.31165582 0.014840754 0.6975154 0.059363015 0.059363015
-0.014840754 -0.014840754 -0.044522263 0.029681507 -0.014840754 0.31165582 0.11872603 -0.32649657
-0.1929298 0.6381524 -0.029681507 0.044522263 0.20777056 -0.14840753 0.16324829 0.13356678
0.17808905 0.1929298 0.8310822 0.13356678 0.029681507 -0.34133732 0.43038186 -0.014840754
0.014840754 0.029681507 0.56394863 0.014840754 0.029681507 0.20777056 -0.16324829 -0.014840754
0.14840753 0.20777056 -0.029681507 0.07420377 0.029681507 0.059363015 -0.29681507 0.014840754
0.029681507 -0.11872603 0.7420377 -0.17808905 0.16324829 -0.6381524 0.059363015 -0.47490412
0.0 -0.089044526 0.46006337 -0.044522263 0.014840754 0.029681507 -0.089044526 0.14840753
0.0 1.1278973 0.32649657 -0.059363015 0.31165582 0.11872603 0.059363015 0.20777056
0.059363015 0.044522263 0.16324829 0.1929298 0.87560445 0.059363015 0.17808905 0.044522263
-0.059363015 -0.014840754 0.0 0.4155411 0.56394863 -0.16324829 0.10388528 0.22261131
0.23745206 0.059363015 0.089044526 -0.23745206 0.46006337 -0.11872603 -0.31165582 0.3561781
-0.07420377 -0.059363015 0.10388528 0.059363015 0.089044526 0.3561781 0.14840753 0.6381524
0.10388528 0.23745206 0.0 0.10388528 0.11872603 -0.059363015 0.059363015 -0.11872603
-0.044522263 -0.044522263 0.5342671 -0.26713356 0.13356678 0.029681507 0.044522263 -0.014840754
1.3059863 0.0 -0.059363015 0.32649657 0.22261131 -0.13356678 0.20777056 -0.1929298
0.07420377 -0.1929298 0.11872603 0.014840754 0.029681507 -0.059363015 0.059363015 -0.014840754
-0.029681507 0.089044526 -0.044522263 -0.014840754 0.11872603 0.48974487 0.32649657 0.07420377
-0.22261131 0.40070036 0.0 0.0 0.2522928 0.07420377 0.62331164 -0.014840754
0.1929298 0.0 0.3561781 0.78655994 0.29681507 -0.089044526 0.0 -0.13356678
-0.34133732 -0.044522263 0.014840754 0.07420377 -0.32649657 0.044522263 0.23745206 -0.029681507
0.014840754 0.014840754 0.5491079 -0.28197432 0.11872603 -0.014840754 0.31165582 0.029681507
