mesa-24.1.x/src/gallium/targets/teflon/tests/mobiledet16.tflite (tflite, 6544 bytes, 1 tensors)

FeatureExtractor/MobileDetEdgeTPU/FusedConv_4/Conv_1/weights_quant/FakeQuantWithMinMaxVars u1 [40, 1, 1, 128] scale=0.014454516 zero_point=124
-0.41918096 -0.41918096 -0.44809 -0.8528164 0.10118161 -0.14454515 -0.59263515 0.52036256
-0.24572676 0.20236322 -0.18790871 0.39027193 0.07227258 0.13009064 -0.2890903 0.30354482
-0.04336355 0.07227258 -0.2890903 0.21681774 -0.10118161 -0.20236322 -0.4625445 0.5348171
0.07227258 -0.2890903 -0.10118161 -0.6504532 0.49145353 -0.5059081 0.476999 -0.70827127
-0.3469084 -0.18790871 0.41918096 -0.5781806 0.2890903 0.10118161 0.0 0.59263515
0.057818063 -0.115636125 0.37581742 0.028909031 0.59263515 0.3613629 0.10118161 -0.4625445
-0.60708964 -0.15899967 -0.21681774 -0.2890903 0.057818063 0.33245385 -0.3613629 -0.476999
-0.4625445 0.23127225 0.20236322 0.41918096 -0.21681774 0.23127225 0.3469084 -0.14454515
0.5348171 0.21681774 0.3469084 -0.953998 -0.21681774 -0.057818063 0.5492716 -0.39027193
0.3469084 0.5348171 -0.04336355 -0.67936224 0.3613629 0.028909031 0.0 0.07227258
0.0 -0.15899967 -0.115636125 0.014454516 -0.15899967 -0.10118161 -0.07227258 -0.21681774
-0.014454516 0.0 -0.14454515 0.10118161 0.30354482 -0.6649077 0.15899967 0.0
-0.33245385 0.52036256 -0.4625445 -0.59263515 0.23127225 -0.18790871 0.18790871 0.31799933
-0.014454516 1.0262706 0.37581742 0.028909031 -0.4625445 -0.5059081 0.49145353 0.14454515
-0.30354482 0.115636125 -0.04336355 -0.2890903 0.15899967 -0.0867271 -0.115636125 -0.028909031
0.37581742 -0.5637261 -0.04336355 0.5492716 0.057818063 -0.24572676 -0.41918096 -0.3613629
0.33245385 -0.33245385 -0.30354482 0.04336355 0.3613629 0.33245385 0.26018128 -0.476999
-0.1734542 0.0867271 0.15899967 0.44809 0.49145353 0.40472645 0.5348171 0.15899967
0.1734542 0.5781806 0.3469084 0.30354482 0.2890903 0.14454515 0.6938168 0.30354482
-0.115636125 0.3613629 0.20236322 0.15899967 0.26018128 0.31799933 -0.70827127 0.5059081
0.5348171 -0.13009064 -0.70827127 0.31799933 -0.10118161 0.115636125 -0.2746358 0.88172543
0.30354482 0.3469084 0.91063446 -0.20236322 0.0 -0.057818063 0.14454515 0.40472645
-0.21681774 -0.3469084 0.44809 0.60708964 0.014454516 -0.8528164 -0.63599867 0.1734542
-0.6215442 -0.41918096 0.0 0.15899967 -0.20236322 -0.5059081 -0.23127225 0.6649077
-0.115636125 0.15899967 0.115636125 0.04336355 -0.33245385 -0.2746358 0.40472645 -0.057818063
0.37581742 0.7660893 0.39027193 -0.115636125 -0.0867271 -0.15899967 -0.26018128 0.52036256
0.23127225 -0.3469084 -0.028909031 -0.1734542 0.3469084 0.014454516 0.014454516 0.115636125
0.028909031 0.0867271 0.0 0.014454516 0.1734542 0.13009064 0.18790871 -0.0867271
-0.37581742 -0.5492716 0.18790871 -0.59263515 0.13009064 -0.39027193 -0.5059081 -0.014454516
-0.115636125 0.014454516 -0.04336355 -0.20236322 -0.67936224 -0.6504532 0.10118161 0.476999
0.057818063 -0.37581742 0.21681774 0.75163484 0.41918096 0.1734542 0.39027193 0.15899967
0.10118161 -0.59263515 0.21681774 -0.028909031 0.0 -0.13009064 -0.115636125 -0.2890903
00000000: 5f5f 5d41 8372 53a0 6b8a 6f97 8185 6891
00000010: 7981 688b 756e 5ca1 8168 754f 9e59 9d4b
00000020: 646f 9954 9083 7ca5 8074 967e a595 835c
00000030: 5271 6d68 8093 635b 5c8c 8a99 6d8c 9472
00000040: a18b 943a 6d78 a261 94a1 794d 957e 7c81
00000050: 7c71 747d 7175 776d 7b7c 7283 914e 877c
00000060: 65a0 5c53 8c6f 8992 7bc3 967e 5c59 9e86
00000070: 6784 7968 8776 747a 9655 79a2 806b 5f63
00000080: 9365 677f 9593 8e5b 7082 879b 9e98 a187
00000090: 88a4 9491 9086 ac91 7495 8a87 8e92 4b9f
000000a0: a173 4b92 7584 69b9 9194 bb6e 7c78 8698
000000b0: 6d64 9ba6 7d41 5088 515f 7c87 6e59 6caa
000000c0: 7487 847f 6569 9878 96b1 9774 7671 6aa0
000000d0: 8c64 7a70 947d 7d84 7e82 7c7d 8885 8976
000000e0: 6256 8953 8561 597b 747d 796e 4d4f 839d
000000f0: 8062 8bb0 9988 9787 8353 8b7a 7c73 7468
