mesa-24.1.x/src/gallium/targets/teflon/tests/mobiledet89.tflite (tflite, 7872 bytes, 1 tensors)

BoxPredictor_2/ClassPredictor_depthwise/weights_quant/FakeQuantWithMinMaxVars u1 [1, 3, 3, 512] scale=0.036906045 zero_point=159
-0.25834233 0.36906046 -0.70121485 0.07381209 -0.4797786 -0.9226511 -0.6274028 -0.3321544
-0.07381209 -0.18453023 0.036906045 -0.036906045 0.036906045 -0.036906045 -0.29524836 0.29524836
-1.3655237 0.18453023 -0.25834233 0.22143626 0.14762418 0.29524836 0.11071813 0.22143626
0.4797786 0.11071813 -0.55359066 0.07381209 -0.22143626 0.036906045 0.0 0.29524836
-0.036906045 -0.3321544 0.14762418 0.51668465 0.36906046 0.36906046 0.11071813 0.0
-0.44287252 -0.25834233 -0.22143626 0.0 0.44287252 -0.036906045 -0.22143626 -0.25834233
0.0 -0.29524836 0.22143626 0.07381209 0.036906045 -0.07381209 -0.18453023 -0.4059665
-0.14762418 0.11071813 -0.7381209 -0.70121485 -0.4797786 0.4059665 -0.25834233 0.3321544
-0.4797786 0.51668465 0.18453023 -0.22143626 -0.22143626 -0.29524836 0.3321544 -0.25834233
0.036906045 0.07381209 -0.22143626 0.14762418 -0.88574505 0.25834233 0.0 0.36906046
-0.4059665 -0.036906045 -0.11071813 0.3321544 -0.3321544 -0.18453023 0.036906045 0.0
-1.2917116 0.4059665 0.811933 -1.2917116 -0.18453023 -0.4797786 0.11071813 0.25834233
-0.22143626 0.29524836 0.036906045 0.18453023 0.07381209 0.0 0.0 0.07381209
0.11071813 -0.14762418 -0.36906046 0.18453023 0.4059665 -0.22143626 -0.7750269 0.036906045
0.07381209 0.51668465 -0.4059665 -1.4024297 0.11071813 0.51668465 0.036906045 -0.11071813
0.5904967 0.29524836 0.22143626 0.07381209 0.36906046 -0.11071813 -0.07381209 -0.07381209
-0.25834233 -0.11071813 -0.07381209 -0.036906045 0.0 0.0 0.07381209 -0.036906045
-0.14762418 0.22143626 -0.07381209 -0.4059665 -0.14762418 -0.29524836 -0.88574505 -0.29524836
0.4059665 0.0 -0.44287252 0.036906045 0.036906045 -0.07381209 -0.51668465 1.0702753
-0.29524836 0.0 0.036906045 -1.2548056 1.0333693 -0.036906045 0.07381209 0.25834233
-0.18453023 -0.22143626 -0.036906045 -0.18453023 -0.44287252 0.25834233 -0.11071813 -1.7345841
-0.036906045 0.25834233 -0.51668465 0.14762418 0.55359066 -0.18453023 -0.44287252 0.07381209
0.0 0.4059665 -0.9226511 0.11071813 0.14762418 -0.18453023 -0.07381209 -0.07381209
-0.29524836 -0.36906046 0.0 -0.07381209 -0.55359066 0.14762418 -0.18453023 -1.2178994
-0.44287252 1.1440874 -0.22143626 0.14762418 -0.6643088 -0.5904967 -0.4059665 -0.07381209
-0.036906045 -0.9226511 -0.07381209 0.036906045 -0.14762418 -0.3321544 -0.25834233 -0.55359066
-0.14762418 0.0 -0.22143626 -0.55359066 -0.036906045 -0.11071813 -0.14762418 -0.3321544
-1.4024297 -0.25834233 -0.36906046 0.811933 -0.07381209 -0.4059665 0.14762418 -0.036906045
-0.29524836 -1.4393357 -0.3321544 0.4797786 -0.4797786 -0.22143626 0.11071813 -0.25834233
-0.11071813 -0.11071813 -0.811933 0.0 0.07381209 0.14762418 -0.3321544 -0.4797786
0.0 -0.11071813 -0.11071813 -0.14762418 -0.14762418 -0.25834233 -0.07381209 0.29524836
-0.25834233 -0.22143626 0.036906045 0.3321544 -0.18453023 -1.2178994 -0.29524836 -0.036906045
00000000: 98a9 8ca1 9286 8e96 9d9a a09e a09e 97a7
00000010: 7aa4 98a5 a3a7 a2a5 aca2 90a1 99a0 9fa7
00000020: 9e96 a3ad a9a9 a29f 9398 999f ab9e 9998
00000030: 9f97 a5a1 a09d 9a94 9ba2 8b8c 92aa 98a8
00000040: 92ad a499 9997 a898 a0a1 99a3 87a6 9fa9
00000050: 949e 9ca8 969a a09f 7caa b57c 9a92 a2a6
00000060: 99a7 a0a4 a19f 9fa1 a29b 95a4 aa99 8aa0
00000070: a1ad 9479 a2ad a09c afa7 a5a1 a99c 9d9d
00000080: 989c 9d9e 9f9f a19e 9ba5 9d94 9b97 8797
00000090: aa9f 93a0 a09d 91bc 979f a07d bb9e a1a6
000000a0: 9a99 9e9a 93a6 9c70 9ea6 91a3 ae9a 93a1
000000b0: 9faa 86a2 a39a 9d9d 9795 9f9d 90a3 9a7e
000000c0: 93be 99a3 8d8f 949d 9e86 9da0 9b96 9890
000000d0: 9b9f 9990 9e9c 9b96 7998 95b5 9d94 a39e
000000e0: 9778 96ac 9299 a298 9c9c 899f a1a3 9692
000000f0: 9f9c 9c9b 9b98 9da7 9899 a0a8 9a7e 979e
