mesa-24.1.x/src/gallium/targets/teflon/tests/mobiledet83.tflite (tflite, 9984 bytes, 1 tensors)

FeatureExtractor/MobileDetEdgeTPU/C5_2_Conv2d_5_3x3_s2_128/weights_quant/FakeQuantWithMinMaxVars u1 [128, 1, 1, 64] scale=0.016383009 zero_point=157
000000 d1 a2 99 85 a5 8f be 39 9a a5 b1 a1 8e a6 97 b4
       0.8519165 0.08191504 -0.065532036 -0.39319223 0.13106407 -0.22936213 0.5406393 -1.6383009 -0.04914903 0.13106407 0.32766017 0.065532036 -0.24574514 0.14744708 -0.09829806 0.3768092
000010 65 99 9d aa a5 9a be 76 97 a5 8e b0 ac 94 7a c5
       -0.9174485 -0.065532036 0.0 0.21297912 0.13106407 -0.04914903 0.5406393 -0.63893735 -0.09829806 0.13106407 -0.24574514 0.31127718 0.24574514 -0.14744708 -0.5734053 0.65532035
000020 9a a5 85 a6 9c af 99 a2 96 c0 a2 7c 77 9a 9f b4
       -0.04914903 0.13106407 -0.39319223 0.14744708 -0.016383009 0.29489416 -0.065532036 0.08191504 -0.114681065 0.5734053 0.08191504 -0.5406393 -0.62255436 -0.04914903 0.032766018 0.3768092
000030 a5 ac a7 98 73 9e a2 91 ad 99 a9 a0 6e a5 a4 97
       0.13106407 0.24574514 0.16383009 -0.08191504 -0.6880864 0.016383009 0.08191504 -0.19659612 0.26212814 -0.065532036 0.19659612 0.04914903 -0.7700014 0.13106407 0.114681065 -0.09829806
000040 95 90 ae 85 9c a3 9c b4 fe bf a0 91 98 84 a4 a8
       -0.13106407 -0.21297912 0.27851117 -0.39319223 -0.016383009 0.09829806 -0.016383009 0.3768092 1.5891519 0.55702233 0.04914903 -0.19659612 -0.08191504 -0.40957522 0.114681065 0.1802131
000050 a0 a7 89 a5 9f 9d b2 a4 97 99 a5 95 57 98 89 b5
       0.04914903 0.16383009 -0.32766017 0.13106407 0.032766018 0.0 0.3440432 0.114681065 -0.09829806 -0.065532036 0.13106407 -0.13106407 -1.1468107 -0.08191504 -0.32766017 0.39319223
000060 9a 94 a3 a3 bd 90 6f 92 64 82 af 9c a9 9b ba 95
       -0.04914903 -0.14744708 0.09829806 0.09829806 0.5242563 -0.21297912 -0.7536184 -0.1802131 -0.9338315 -0.44234124 0.29489416 -0.016383009 0.19659612 -0.032766018 0.47510725 -0.13106407
000070 99 7d a7 a7 a3 bf 8d 96 94 a5 a9 a2 84 8c b1 92
       -0.065532036 -0.5242563 0.16383009 0.16383009 0.09829806 0.55702233 -0.26212814 -0.114681065 -0.14744708 0.13106407 0.19659612 0.08191504 -0.40957522 -0.27851117 0.32766017 -0.1802131
000080 a5 88 98 8e b1 8e b5 8b b1 94 72 8a 91 84 b5 95
       0.13106407 -0.3440432 -0.08191504 -0.24574514 0.32766017 -0.24574514 0.39319223 -0.29489416 0.32766017 -0.14744708 -0.7044694 -0.31127718 -0.19659612 -0.40957522 0.39319223 -0.13106407
000090 ae 82 a6 3e c0 80 a6 7b a6 ba ae a1 b3 8a bc 91
       0.27851117 -0.44234124 0.14744708 -1.5563859 0.5734053 -0.47510725 0.14744708 -0.55702233 0.14744708 0.47510725 0.27851117 0.065532036 0.3604262 -0.31127718 0.5078733 -0.19659612
0000a0 8b b5 ca a0 9e cc 9f a9 9f 9f a7 ce 7e 92 a0 7d
       -0.29489416 0.39319223 0.7372354 0.04914903 0.016383009 0.7700014 0.032766018 0.19659612 0.032766018 0.032766018 0.16383009 0.80276746 -0.5078733 -0.1802131 0.04914903 -0.5242563
0000b0 a5 b4 69 99 ca 9e b3 b8 a4 95 cc a6 98 98 90 95
       0.13106407 0.3768092 -0.8519165 -0.065532036 0.7372354 0.016383009 0.3604262 0.44234124 0.114681065 -0.13106407 0.7700014 0.14744708 -0.08191504 -0.08191504 -0.21297912 -0.13106407
0000c0 9f a7 90 a7 9e a3 a5 9e 84 83 95 ad 99 97 a6 9e
       0.032766018 0.16383009 -0.21297912 0.16383009 0.016383009 0.09829806 0.13106407 0.016383009 -0.40957522 -0.42595825 -0.13106407 0.26212814 -0.065532036 -0.09829806 0.14744708 0.016383009
0000d0 9e 9a a0 9d 9a 96 8f 97 80 90 8e 9f bc a9 97 a1
       0.016383009 -0.04914903 0.04914903 0.0 -0.04914903 -0.114681065 -0.22936213 -0.09829806 -0.47510725 -0.21297912 -0.24574514 0.032766018 0.5078733 0.19659612 -0.09829806 0.065532036
0000e0 8a 92 9c a7 a1 9d 93 c3 8f 79 9b 9e 97 b2 a3 9c
       -0.31127718 -0.1802131 -0.016383009 0.16383009 0.065532036 0.0 -0.16383009 0.62255436 -0.22936213 -0.5897883 -0.032766018 0.016383009 -0.09829806 0.3440432 0.09829806 -0.016383009
0000f0 a2 af a4 a5 a3 b5 a8 9f a2 a2 9b 99 9f a2 96 99
       0.08191504 0.29489416 0.114681065 0.13106407 0.09829806 0.39319223 0.1802131 0.032766018 0.08191504 0.08191504 -0.032766018 -0.065532036 0.032766018 0.08191504 -0.114681065 -0.065532036
