mesa-24.1.x/src/gallium/targets/teflon/tests/mobiledet116.tflite (tflite, 4352 bytes, 1 tensors)

BoxPredictor_5/BoxEncodingPredictor/weights_quant/FakeQuantWithMinMaxVars u1 [24, 1, 1, 128] scale=0.0013351474 zero_point=125
000000 7a 7b 7c 7b 7f 7d 7d 7d 7c 7d 7d 77 80 84 7d da
       -0.0040054424 -0.0026702948 -0.0013351474 -0.0026702948 0.0026702948 0.0 0.0 0.0 -0.0013351474 0.0 0.0 -0.008010885 0.0040054424 0.009346032 0.0 0.12416871
000010 7d 87 82 7d 7b 7c 7d 80 78 7d 7b 7f 7c 7e 7d 7d
       0.0 0.013351474 0.006675737 0.0 -0.0026702948 -0.0013351474 0.0 0.0040054424 -0.006675737 0.0 -0.0026702948 0.0026702948 -0.0013351474 0.0013351474 0.0 0.0
000020 7b 82 7d 7d 7a 7f 7d 7d 7d 7d 7d 7e 78 7c 7e 7d
       -0.0026702948 0.006675737 0.0 0.0 -0.0040054424 0.0026702948 0.0 0.0 0.0 0.0 0.0 0.0013351474 -0.006675737 -0.0013351474 0.0013351474 0.0
000030 84 7d 7d 7d 7e 7c 7e 7d 7f 82 85 61 7d 7c 80 7e
       0.009346032 0.0 0.0 0.0 0.0013351474 -0.0013351474 0.0013351474 0.0 0.0026702948 0.006675737 0.010681179 -0.037384126 0.0 -0.0013351474 0.0040054424 0.0013351474
000040 7c 26 7d 7d 7d 7d 7d 7e 7a 7d 7d 79 7b 7f 7e 7d
       -0.0013351474 -0.11615782 0.0 0.0 0.0 0.0 0.0 0.0013351474 -0.0040054424 0.0 0.0 -0.0053405897 -0.0026702948 0.0026702948 0.0013351474 0.0
000050 79 2a bd 7c 7d 7f 7a 82 1a 7e 7d 7d 7a 7a 7d 7c
       -0.0053405897 -0.11081724 0.085449435 -0.0013351474 0.0 0.0026702948 -0.0040054424 0.006675737 -0.13217959 0.0013351474 0.0 0.0 -0.0040054424 -0.0040054424 0.0 -0.0013351474
000060 77 85 79 7d 7d 7d 7d 7d 7d 7e 7f d6 7f 7d 7b 7a
       -0.008010885 0.010681179 -0.0053405897 0.0 0.0 0.0 0.0 0.0 0.0 0.0013351474 0.0026702948 0.11882812 0.0026702948 0.0 -0.0026702948 -0.0040054424
000070 7d 7d 7d c9 7a 7b 7a 7c 7d 7d 7c 7d 7a 80 7d 7d
       0.0 0.0 0.0 0.1014712 -0.0040054424 -0.0026702948 -0.0040054424 -0.0013351474 0.0 0.0 -0.0013351474 0.0 -0.0040054424 0.0040054424 0.0 0.0
000080 7c 7d 7e 79 7f 7d 7d 7d 7b 7d 7d 7d 7e 7c 7d 7d
       -0.0013351474 0.0 0.0013351474 -0.0053405897 0.0026702948 0.0 0.0 0.0 -0.0026702948 0.0 0.0 0.0 0.0013351474 -0.0013351474 0.0 0.0
000090 3e 88 7f 7d 7b 2e 7d 7d 7e 7c 7d e1 7e 80 7c 7d
       -0.08411429 0.014686622 0.0026702948 0.0 -0.0026702948 -0.10547665 0.0 0.0 0.0013351474 -0.0013351474 0.0 0.13351475 0.0013351474 0.0040054424 -0.0013351474 0.0
0000a0 7d 7c 7d 7d 7e 7b 7d 7d 7d 7d 7d 7d 7c 7d 7b 7d
       0.0 -0.0013351474 0.0 0.0 0.0013351474 -0.0026702948 0.0 0.0 0.0 0.0 0.0 0.0 -0.0013351474 0.0 -0.0026702948 0.0
0000b0 80 7d 7d 7d 7d 7d 7e 7d 7b 7e 7e 7b 7d 7c 7f 7e
       0.0040054424 0.0 0.0 0.0 0.0 0.0 0.0013351474 0.0 -0.0026702948 0.0013351474 0.0013351474 -0.0026702948 0.0 -0.0013351474 0.0026702948 0.0013351474
0000c0 75 7f 7d 7d 7d 7d 7e 84 80 7d 7d 7d 7d 7c 7f 7f
       -0.010681179 0.0026702948 0.0 0.0 0.0 0.0 0.0013351474 0.009346032 0.0040054424 0.0 0.0 0.0 0.0 -0.0013351474 0.0026702948 0.0026702948
0000d0 7d 7d 7c 7e 7d 7b 7d 60 7c 7c 7d c5 7b 7b 30 7d
       0.0 0.0 -0.0013351474 0.0013351474 0.0 -0.0026702948 0.0 -0.038719274 -0.0013351474 -0.0013351474 0.0 0.09613062 -0.0026702948 -0.0026702948 -0.10280635 0.0
0000e0 9e 81 7a 7d 7d 7d 7d 7d 7d 86 7c 7d 1e 7d 7f 7d
       0.044059865 0.0053405897 -0.0040054424 0.0 0.0 0.0 0.0 0.0 0.0 0.012016327 -0.0013351474 0.0 -0.12683901 0.0 0.0026702948 0.0
0000f0 7d 7f 7d 7f 7e 7f 8e 7e 7d 7d 7e 7d 7c db 7d 77
       0.0 0.0026702948 0.0 0.0026702948 0.0013351474 0.0026702948 0.022697506 0.0013351474 0.0 0.0 0.0013351474 0.0 -0.0013351474 0.12550385 0.0 -0.008010885
