mesa-24.1.x/src/gallium/targets/teflon/tests/mobiledet29.tflite (tflite, 44992 bytes, 1 tensors)

FeatureExtractor/MobileDetEdgeTPU/IBN_1/Conv/weights_quant/FakeQuantWithMinMaxVars u1 [576, 1, 1, 72] scale=0.0031932334 zero_point=112
000000 6d 72 73 6f 70 74 6b 78 72 78 6d 69 6f 72 6a 74
       -0.0095797 0.006386467 0.0095797 -0.0031932334 0.0 0.012772934 -0.015966168 0.025545867 0.006386467 0.025545867 -0.0095797 -0.022352634 -0.0031932334 0.006386467 -0.0191594 0.012772934
000010 67 72 72 72 6f 76 73 72 76 72 70 6d 72 71 70 72
       -0.0287391 0.006386467 0.006386467 0.006386467 -0.0031932334 0.0191594 0.0095797 0.006386467 0.0191594 0.006386467 0.0 -0.0095797 0.006386467 0.0031932334 0.0 0.006386467
000020 6c 76 74 73 72 6e 6f 6b 64 71 6d 71 70 71 73 7b
       -0.012772934 0.0191594 0.012772934 0.0095797 0.006386467 -0.006386467 -0.0031932334 -0.015966168 -0.0383188 0.0031932334 -0.0095797 0.0031932334 0.0 0.0031932334 0.0095797 0.03512557
000030 69 6f 74 6f 65 75 71 6c 76 72 76 67 75 6b 65 70
       -0.022352634 -0.0031932334 0.012772934 -0.0031932334 -0.03512557 0.015966168 0.0031932334 -0.012772934 0.0191594 0.006386467 0.0191594 -0.0287391 0.015966168 -0.015966168 -0.03512557 0.0
000040 71 6e 61 71 66 6e 73 75 76 78 73 5f 6c 78 76 6b
       0.0031932334 -0.006386467 -0.0478985 0.0031932334 -0.031932335 -0.006386467 0.0095797 0.015966168 0.0191594 0.025545867 0.0095797 -0.054284967 -0.012772934 0.025545867 0.0191594 -0.015966168
000050 6e 70 77 6a 6d 79 6c 64 67 6e 60 88 69 6f 66 70
       -0.006386467 0.0 0.022352634 -0.0191594 -0.0095797 0.0287391 -0.012772934 -0.0383188 -0.0287391 -0.006386467 -0.051091734 0.0766376 -0.022352634 -0.0031932334 -0.031932335 0.0
000060 6a 77 6e 62 6f 74 70 6d 6c 87 72 79 8a 68 6c 7a
       -0.0191594 0.022352634 -0.006386467 -0.044705268 -0.0031932334 0.012772934 0.0 -0.0095797 -0.012772934 0.07344437 0.006386467 0.0287391 0.08302407 -0.025545867 -0.012772934 0.031932335
000070 70 72 67 5c 77 70 63 73 63 79 6d 67 62 60 71 60
       0.0 0.006386467 -0.0287391 -0.06386467 0.022352634 0.0 -0.041512035 0.0095797 -0.041512035 0.0287391 -0.0095797 -0.0287391 -0.044705268 -0.051091734 0.0031932334 -0.051091734
000080 79 6e 71 83 70 75 6d 7b 72 74 85 7c 80 75 74 75
       0.0287391 -0.006386467 0.0031932334 0.060671434 0.0 0.015966168 -0.0095797 0.03512557 0.006386467 0.012772934 0.0670579 0.0383188 0.051091734 0.015966168 0.012772934 0.015966168
000090 70 74 75 77 76 6e 94 6b 6f 78 5f 70 7a 6a 69 64
       0.0 0.012772934 0.015966168 0.022352634 0.0191594 -0.006386467 0.1149564 -0.015966168 -0.0031932334 0.025545867 -0.054284967 0.0 0.031932335 -0.0191594 -0.022352634 -0.0383188
0000a0 6e 6c 71 5f 6a 73 78 6c 74 7d 79 72 8b 67 6a 6c
       -0.006386467 -0.012772934 0.0031932334 -0.054284967 -0.0191594 0.0095797 0.025545867 -0.012772934 0.012772934 0.041512035 0.0287391 0.006386467 0.0862173 -0.0287391 -0.0191594 -0.012772934
0000b0 69 65 68 64 69 73 67 6b 6e 79 59 74 79 6b 6a 7a
       -0.022352634 -0.03512557 -0.025545867 -0.0383188 -0.022352634 0.0095797 -0.0287391 -0.015966168 -0.006386467 0.0287391 -0.07344437 0.012772934 0.0287391 -0.015966168 -0.0191594 0.031932335
0000c0 69 77 68 6f 6a 6f 72 72 79 75 83 66 75 76 76 79
       -0.022352634 0.022352634 -0.025545867 -0.0031932334 -0.0191594 -0.0031932334 0.006386467 0.006386467 0.0287391 0.015966168 0.060671434 -0.031932335 0.015966168 0.0191594 0.0191594 0.0287391
0000d0 6b 76 65 87 7f 76 77 62 7a 6c 73 6f 6d 75 77 7b
       -0.015966168 0.0191594 -0.03512557 0.07344437 0.0478985 0.0191594 0.022352634 -0.044705268 0.031932335 -0.012772934 0.0095797 -0.0031932334 -0.0095797 0.015966168 0.022352634 0.03512557
0000e0 6d 6d 6a 6a 6c 70 73 71 72 71 70 78 83 7b 73 70
       -0.0095797 -0.0095797 -0.0191594 -0.0191594 -0.012772934 0.0 0.0095797 0.0031932334 0.006386467 0.0031932334 0.0 0.025545867 0.060671434 0.03512557 0.0095797 0.0
0000f0 65 62 74 6d 73 67 63 62 6e 6f 73 71 6a 6c 6d 68
       -0.03512557 -0.044705268 0.012772934 -0.0095797 0.0095797 -0.0287391 -0.041512035 -0.044705268 -0.006386467 -0.0031932334 0.0095797 0.0031932334 -0.0191594 -0.012772934 -0.0095797 -0.025545867
