mesa-24.1.x/src/gallium/targets/teflon/tests/mobiledet91.tflite (tflite, 4544 bytes, 1 tensors)

BoxPredictor_3/ClassPredictor_depthwise/weights_quant/FakeQuantWithMinMaxVars u1 [1, 3, 3, 256] scale=0.03618442 zero_point=179
0	0xb7	0.14473768
1	0xad	-0.21710652
2	0xb6	0.10855326
3	0xad	-0.21710652
4	0xb1	-0.07236884
5	0xa3	-0.5789507
6	0xb3	0.0
7	0xb2	-0.03618442
8	0xaf	-0.14473768
9	0xa0	-0.68750393
10	0xb8	0.18092209
11	0xaf	-0.14473768
12	0xb4	0.03618442
13	0xad	-0.21710652
14	0xb3	0.0
15	0xb2	-0.03618442
16	0xa9	-0.36184418
17	0xbd	0.36184418
18	0xb0	-0.10855326
19	0xb1	-0.07236884
20	0xb2	-0.03618442
21	0xb8	0.18092209
22	0xbc	0.32565978
23	0xb9	0.21710652
24	0xb9	0.21710652
25	0xb6	0.10855326
26	0x93	-1.1579014
27	0xa8	-0.3980286
28	0xb3	0.0
29	0xba	0.25329092
30	0xb7	0.14473768
31	0xa1	-0.65131956
32	0xb4	0.03618442
33	0x9a	-0.90461046
34	0xb3	0.0
35	0xbe	0.3980286
36	0xbf	0.43421304
37	0xb5	0.07236884
38	0xb2	-0.03618442
39	0xa4	-0.5427663
40	0xae	-0.18092209
41	0xb3	0.0
42	0x93	-1.1579014
43	0xb4	0.03618442
44	0xa9	-0.36184418
45	0xac	-0.25329092
46	0xac	-0.25329092
47	0xb1	-0.07236884
48	0xb0	-0.10855326
49	0xa4	-0.5427663
50	0xba	0.25329092
51	0xb4	0.03618442
52	0xba	0.25329092
53	0x98	-0.9769793
54	0xb3	0.0
55	0xb8	0.18092209
56	0xbc	0.32565978
57	0xb4	0.03618442
58	0xae	-0.18092209
59	0xbd	0.36184418
60	0xb6	0.10855326
61	0xbb	0.28947535
62	0xac	-0.25329092
63	0xd4	1.1940858
64	0xb5	0.07236884
65	0xc8	0.7598728
66	0xb8	0.18092209
67	0xb8	0.18092209
68	0xb8	0.18092209
69	0xb8	0.18092209
70	0xa6	-0.47039744
71	0xb2	-0.03618442
72	0xae	-0.18092209
73	0xb2	-0.03618442
74	0xb2	-0.03618442
75	0xb5	0.07236884
76	0x9f	-0.72368836
77	0xb0	-0.10855326
78	0xbb	0.28947535
79	0xb0	-0.10855326
80	0xb5	0.07236884
81	0xb3	0.0
82	0xae	-0.18092209
83	0xc6	0.68750393
84	0xaa	-0.32565978
85	0x9a	-0.90461046
86	0xb0	-0.10855326
87	0xb3	0.0
88	0xb4	0.03618442
89	0xa6	-0.47039744
90	0xb4	0.03618442
91	0xb1	-0.07236884
92	0xb4	0.03618442
93	0xb2	-0.03618442
94	0xba	0.25329092
95	0xaa	-0.32565978
96	0xb9	0.21710652
97	0xb4	0.03618442
98	0xa1	-0.65131956
99	0xb2	-0.03618442
100	0xaf	-0.14473768
101	0xb2	-0.03618442
102	0xc7	0.72368836
103	0xb2	-0.03618442
104	0x94	-1.121717
105	0xb3	0.0
106	0xb0	-0.10855326
107	0x90	-1.2664547
108	0xae	-0.18092209
109	0xb7	0.14473768
110	0xb6	0.10855326
111	0xb9	0.21710652
112	0xb2	-0.03618442
113	0xb0	-0.10855326
114	0xa4	-0.5427663
115	0xb0	-0.10855326
116	0xae	-0.18092209
117	0xb6	0.10855326
118	0x94	-1.121717
119	0xb5	0.07236884
120	0xbc	0.32565978
121	0x9f	-0.72368836
122	0xbc	0.32565978
123	0xa8	-0.3980286
124	0xbe	0.3980286
125	0xaf	-0.14473768
126	0xc3	0.5789507
127	0xaf	-0.14473768
128	0xb4	0.03618442
129	0xb6	0.10855326
130	0xaf	-0.14473768
131	0xae	-0.18092209
132	0xa6	-0.47039744
133	0xa1	-0.65131956
134	0xcb	0.8684261
135	0xba	0.25329092
136	0xb5	0.07236884
137	0xb3	0.0
138	0xb5	0.07236884
139	0xb9	0.21710652
140	0xb7	0.14473768
141	0xb7	0.14473768
142	0xb2	-0.03618442
143	0xa2	-0.61513513
144	0xb3	0.0
145	0xb4	0.03618442
146	0xa0	-0.68750393
147	0xac	-0.25329092
148	0xab	-0.28947535
149	0xb8	0.18092209
150	0xb4	0.03618442
151	0xb9	0.21710652
152	0xb1	-0.07236884
153	0xb4	0.03618442
154	0xb4	0.03618442
155	0xb8	0.18092209
156	0xaf	-0.14473768
157	0x9f	-0.72368836
158	0xaf	-0.14473768
159	0xb4	0.03618442
160	0xae	-0.18092209
161	0xb3	0.0
162	0xb9	0.21710652
163	0xb7	0.14473768
164	0xa7	-0.43421304
165	0xb5	0.07236884
166	0xb1	-0.07236884
167	0xad	-0.21710652
168	0xb0	-0.10855326
169	0xb7	0.14473768
170	0xab	-0.28947535
171	0xba	0.25329092
172	0xad	-0.21710652
173	0xb1	-0.07236884
174	0xb0	-0.10855326
175	0xa8	-0.3980286
176	0xb0	-0.10855326
177	0xb4	0.03618442
178	0xb5	0.07236884
179	0xad	-0.21710652
180	0xb8	0.18092209
181	0xb8	0.18092209
182	0xb2	-0.03618442
183	0xaa	-0.32565978
184	0xb6	0.10855326
185	0x9d	-0.7960572
186	0xb2	-0.03618442
187	0xb8	0.18092209
188	0x8d	-1.3750079
189	0xb1	-0.07236884
190	0xb3	0.0
191	0xae	-0.18092209
192	0xe3	1.7368522
193	0xb6	0.10855326
194	0xb8	0.18092209
195	0xb3	0.0
196	0xba	0.25329092
197	0xb1	-0.07236884
198	0xae	-0.18092209
199	0xaf	-0.14473768
200	0xbe	0.3980286
201	0xaf	-0.14473768
202	0xaf	-0.14473768
203	0xb0	-0.10855326
204	0xb2	-0.03618442
205	0x9f	-0.72368836
206	0xbd	0.36184418
207	0xb6	0.10855326
208	0xb6	0.10855326
209	0xb2	-0.03618442
210	0xb2	-0.03618442
211	0xaf	-0.14473768
212	0xaa	-0.32565978
213	0x9e	-0.7598728
214	0xb4	0.03618442
215	0xa9	-0.36184418
216	0xb3	0.0
217	0x8f	-1.3026391
218	0xb4	0.03618442
219	0xb3	0.0
220	0xcc	0.90461046
221	0xac	-0.25329092
222	0xbf	0.43421304
223	0xb5	0.07236884
224	0xad	-0.21710652
225	0xa5	-0.50658184
226	0xb8	0.18092209
227	0xb6	0.10855326
228	0xaf	-0.14473768
229	0x93	-1.1579014
230	0xb2	-0.03618442
231	0xb1	-0.07236884
232	0xb2	-0.03618442
233	0xb8	0.18092209
234	0xbb	0.28947535
235	0xb3	0.0
236	0x9a	-0.90461046
237	0xa8	-0.3980286
238	0x94	-1.121717
239	0xba	0.25329092
240	0xa2	-0.61513513
241	0xb1	-0.07236884
242	0xb5	0.07236884
243	0xae	-0.18092209
244	0xb4	0.03618442
245	0xb7	0.14473768
246	0xa3	-0.5789507
247	0xa5	-0.50658184
248	0xc2	0.5427663
249	0xb9	0.21710652
250	0xb3	0.0
251	0xb4	0.03618442
252	0xb2	-0.03618442
253	0xb5	0.07236884
254	0xb7	0.14473768
255	0xd4	1.1940858
