mesa-24.1.x/src/gallium/targets/teflon/tests/mobiledet5.tflite (tflite, 3344 bytes, 1 tensors)

FeatureExtractor/MobileDetEdgeTPU/FusedConv/Conv_1/weights_quant/FakeQuantWithMinMaxVars u1 [16, 1, 1, 128] scale=0.020278728 zero_point=114
0.48668945 -0.38529584 -0.99365765 0.24334472 0.3650171 0.93282145 -0.10139364 -0.5678044
-0.8111491 0.20278728 -0.16222982 -0.54752564 1.0747726 0.91254276 -0.38529584 -0.34473836
-0.10139364 -0.48668945 -0.60836184 -0.7705917 -0.08111491 -0.7503129 -0.42585328 -0.446132
-0.8314278 0.48668945 0.0 0.18250854 0.8111491 0.040557455 -0.18250854 -1.196445
0.9733789 0.38529584 0.892264 0.79087037 0.7097555 -0.42585328 0.5069682 0.5678044
1.11533 -0.7300342 0.08111491 0.223066 0.0 0.91254276 -0.32445964 0.8314278
-1.196445 0.93282145 -0.7503129 -0.040557455 -0.892264 -0.6894767 0.42585328 0.3650171
-1.419511 -1.0544938 -0.7705917 -0.18250854 -0.93282145 1.6425769 0.9531002 -0.040557455
-0.3650171 -0.7097555 -0.48668945 -0.10139364 -0.020278728 0.5678044 -0.5069682 0.91254276
-0.020278728 -0.85170656 -0.40557456 0.42585328 -1.0139364 0.040557455 -0.26362345 0.85170656
-1.5817407 -0.223066 0.16222982 -0.08111491 -0.040557455 -0.54752564 -0.6489193 -0.34473836
0.42585328 0.34473836 0.79087037 -0.7300342 0.2839022 -0.5678044 -1.2572811 0.5880831
-0.12167236 -0.8719853 0.0 -0.79087037 -0.40557456 -0.54752564 -0.38529584 0.6894767
0.46641073 -0.08111491 0.6489193 0.040557455 -0.79087037 0.08111491 -0.48668945 0.6894767
-0.42585328 0.6894767 0.3650171 -0.2839022 -0.62864053 0.6894767 1.1558875 0.7705917
0.54752564 -0.46641073 -0.2839022 1.0342151 0.020278728 0.08111491 0.8314278 1.0139364
0.10139364 0.93282145 -0.06083618 0.7503129 0.7705917 -0.91254276 -0.62864053 0.7300342
-0.38529584 0.5880831 -0.5678044 -1.561462 0.99365765 -0.7097555 -0.1419511 0.85170656
0.26362345 0.223066 -0.46641073 0.20278728 -0.20278728 -0.38529584 0.24334472 0.66919804
0.5880831 1.3383961 -0.8314278 -0.12167236 -0.9531002 0.08111491 -0.42585328 0.446132
-0.7300342 -0.6894767 0.48668945 -0.5880831 -0.06083618 0.91254276 0.62864053 0.1419511
-0.60836184 0.62864053 -1.0342151 -1.1356088 1.11533 -1.7236918 -0.32445964 0.5880831
0.5678044 -0.892264 0.020278728 0.6489193 -0.7503129 -0.12167236 -0.62864053 0.79087037
0.93282145 0.223066 -0.6894767 0.040557455 0.020278728 0.32445964 1.6628556 -0.60836184
-0.18250854 -1.0342151 0.66919804 1.0544938 -0.7503129 0.7300342 -0.32445964 -0.48668945
-0.42585328 -0.5069682 -0.8719853 -0.2839022 0.60836184 0.91254276 -0.5069682 0.38529584
-1.0950513 -0.5272469 0.7705917 -0.26362345 -0.7503129 0.26362345 -0.32445964 0.892264
0.34473836 -0.66919804 1.196445 0.46641073 -0.5069682 0.08111491 -1.0950513 -0.16222982
0.54752564 0.93282145 -0.8719853 -0.32445964 -0.18250854 -0.223066 -0.62864053 -0.5069682
1.0747726 0.892264 -1.2978386 -0.66919804 0.1419511 0.040557455 0.62864053 -0.9531002
-0.08111491 -0.32445964 -0.30418092 -0.7300342 -0.32445964 -0.7300342 0.5069682 -0.85170656
0.8111491 0.08111491 0.0 -0.7097555 0.48668945 -0.3650171 -0.446132 0.48668945
00000000: 8a5f 417e 84a0 6d56 4a7c 6a57 a79f 5f61
00000010: 6d5a 544c 6e4d 5d5c 498a 727b 9a74 6937
00000020: a285 9e99 955d 8b8e a94e 767d 729f 629b
00000030: 37a0 4d70 4650 8784 2c3e 4c69 44c3 a170
00000040: 604f 5a6d 718e 599f 7148 5e87 4074 659c
00000050: 2467 7a6e 7057 5261 8783 994e 8056 348f
00000060: 6c47 724b 5e57 5f94 896e 9274 4b76 5a94
00000070: 5d94 8464 5394 ab98 8d5b 64a5 7376 9ba4
00000080: 77a0 6f97 9845 5396 5f8f 5625 a34f 6b9c
00000090: 7f7d 5b7c 685f 7e93 8fb4 496c 4376 5d88
000000a0: 4e50 8a55 6f9f 9179 5491 3f3a a91d 628f
000000b0: 8e46 7392 4d6c 5399 a07d 5074 7382 c454
000000c0: 693f 93a6 4d96 625a 5d59 4764 909f 5985
000000d0: 3c58 9865 4d7f 629e 8351 ad89 5976 3c6a
000000e0: 8da0 4762 6967 5359 a79e 3251 7974 9143
000000f0: 6e62 634e 624e 8b48 9a76 724f 8a60 5c8a
