mesa-24.1.x/src/gallium/targets/teflon/tests/mobiledet102.tflite (tflite, 213008 bytes, 1 tensors)

BoxPredictor_1/ClassPredictor/weights_quant/FakeQuantWithMinMaxVars u1 [546, 1, 1, 384] scale=0.0015799913 zero_point=136
0.0 -0.0015799913 -0.007899957 -0.011059939 -0.0031599826 -0.0015799913 -0.0015799913 -0.0015799913
-0.011059939 -0.017379904 -0.0047399737 -0.0031599826 -0.0015799913 -0.0047399737 -0.0047399737 0.0
-0.0031599826 -0.0063199652 -0.0015799913 -0.0047399737 -0.0126399305 -0.007899957 -0.0063199652 0.0
-0.0031599826 -0.007899957 0.0 -0.011059939 -0.0031599826 -0.0063199652 -0.009479947 -0.0063199652
0.0 -0.0047399737 -0.0015799913 -0.0047399737 -0.007899957 -0.0015799913 -0.0015799913 -0.007899957
-0.0063199652 -0.0031599826 -0.009479947 -0.007899957 -0.007899957 -0.0015799913 -0.007899957 0.0
-0.0031599826 -0.0015799913 -0.011059939 -0.009479947 -0.011059939 -0.0015799913 -0.0015799913 -0.0031599826
0.0 -0.0015799913 -0.009479947 -0.011059939 -0.007899957 -0.007899957 -0.007899957 -0.009479947
-0.0015799913 -0.0126399305 -0.007899957 -0.0031599826 0.0 -0.0031599826 -0.0031599826 -0.007899957
0.0 0.0 -0.0126399305 -0.007899957 -0.007899957 -0.0015799913 -0.0015799913 -0.0063199652
-0.0047399737 0.0 -0.0031599826 -0.0015799913 -0.0015799913 -0.007899957 -0.0031599826 -0.009479947
-0.009479947 -0.0031599826 -0.0063199652 -0.0063199652 -0.0047399737 -0.0031599826 0.0 -0.0015799913
-0.009479947 -0.0015799913 -0.007899957 -0.009479947 -0.0031599826 -0.0015799913 -0.0063199652 -0.0063199652
-0.0047399737 -0.0015799913 -0.011059939 -0.0047399737 -0.0126399305 -0.007899957 -0.0047399737 -0.0015799913
-0.0047399737 -0.0047399737 -0.009479947 -0.0047399737 -0.0063199652 -0.0031599826 -0.014219922 -0.007899957
-0.0063199652 -0.009479947 -0.007899957 -0.0047399737 -0.0015799913 -0.007899957 -0.0031599826 -0.009479947
-0.0031599826 -0.0031599826 -0.007899957 -0.011059939 -0.0015799913 -0.011059939 -0.0031599826 -0.011059939
-0.0047399737 -0.0015799913 -0.007899957 -0.007899957 -0.0015799913 -0.009479947 -0.0047399737 -0.011059939
-0.007899957 -0.007899957 -0.007899957 -0.0063199652 -0.0015799913 -0.0015799913 -0.007899957 -0.0031599826
-0.007899957 0.0 0.0 -0.0063199652 -0.0015799913 -0.0063199652 -0.0063199652 -0.007899957
0.0 -0.007899957 -0.0063199652 0.0 -0.007899957 -0.0063199652 -0.0015799913 -0.0015799913
-0.0015799913 -0.0031599826 -0.0063199652 -0.007899957 -0.007899957 -0.0047399737 -0.009479947 -0.0047399737
0.0 -0.0031599826 -0.007899957 0.0 -0.0047399737 -0.0047399737 -0.0126399305 -0.0126399305
0.0 -0.0031599826 -0.0063199652 -0.007899957 -0.007899957 -0.009479947 -0.0047399737 -0.009479947
-0.0047399737 -0.0015799913 -0.007899957 -0.0031599826 -0.0031599826 -0.0063199652 -0.0015799913 -0.0047399737
-0.0015799913 -0.0047399737 -0.011059939 -0.0031599826 -0.0047399737 -0.0015799913 -0.009479947 0.0
-0.0015799913 -0.011059939 -0.0015799913 -0.0015799913 -0.011059939 -0.0047399737 -0.0047399737 0.0
-0.0063199652 -0.0047399737 -0.0031599826 -0.0031599826 -0.0063199652 -0.0047399737 -0.007899957 -0.007899957
-0.0063199652 -0.0015799913 -0.009479947 -0.0015799913 -0.007899957 -0.0063199652 -0.0015799913 -0.0015799913
-0.009479947 -0.0031599826 -0.007899957 -0.0047399737 -0.0015799913 -0.0126399305 -0.0063199652 -0.0047399737
-0.0031599826 -0.017379904 -0.007899957 -0.0047399737 -0.0031599826 -0.0063199652 -0.0015799913 -0.0031599826
-0.0015799913 -0.0031599826 -0.0063199652 -0.0015799913 -0.009479947 -0.007899957 0.0 -0.0015799913
00000000: 8887 8381 8687 8787 817d 8586 8785 8588
00000010: 8684 8785 8083 8488 8683 8881 8684 8284
00000020: 8885 8785 8387 8783 8486 8283 8387 8388
00000030: 8687 8182 8187 8786 8887 8281 8383 8382
00000040: 8780 8386 8886 8683 8888 8083 8387 8784
00000050: 8588 8687 8783 8682 8286 8484 8586 8887
00000060: 8287 8382 8687 8484 8587 8185 8083 8587
00000070: 8585 8285 8486 7f83 8482 8385 8783 8682
00000080: 8686 8381 8781 8681 8587 8383 8782 8581
00000090: 8383 8384 8787 8386 8388 8884 8784 8483
000000a0: 8883 8488 8384 8787 8786 8483 8385 8285
000000b0: 8886 8388 8585 8080 8886 8483 8382 8582
000000c0: 8587 8386 8684 8785 8785 8186 8587 8288
000000d0: 8781 8787 8185 8588 8485 8686 8485 8383
000000e0: 8487 8287 8384 8787 8286 8385 8780 8485
000000f0: 867d 8385 8684 8786 8786 8487 8283 8887
